checkpoints/long_term_forecast_ECL_168_336_SSCNN_custom_ftM_sl168_ll48_pl336_dm8_el4_lt1_se1_st1_si1_lta1_sea1_sta1_0/checkpoint.pth (torch, 177871 bytes, 72 tensors)

enc_layers.0.I_st f4 [1, 1, 1, 8]
000000 0c 72 96 be 49 98 72 be 03 59 26 be 46 08 97 be
       -0.29383886 -0.23690905 -0.16244893 -0.294985
000010 50 5d d2 be 7d d7 c8 be 3e e0 a5 bc 60 bc de 3e
       -0.41086817 -0.39226905 -0.020248529 0.43503094

enc_layers.0.E_st f4 [336, 1, 1, 8]
000000 1d fe 45 3f cb b6 a3 3e a2 a6 69 be 9e cd 3f bf
       0.7734087 0.31975397 -0.22817472 -0.7492312
000010 c5 ef 41 bf 52 63 ff be 2d 85 2c be d5 b2 9a bd
       -0.75756484 -0.49880463 -0.16847678 -0.07553641
000020 e5 ca 43 be 9c 29 2a be 44 69 d3 bd 58 05 89 3c
       -0.19120367 -0.16617435 -0.10322812 0.01672618
000030 c3 31 89 3c 66 58 89 3d d0 73 f1 3d 89 33 a0 3e
       0.016747361 0.06706314 0.117896676 0.31289318
000040 10 66 0e be 10 ce 41 be 8e 53 5e be 4b 47 63 be
       -0.13906121 -0.18926263 -0.21711561 -0.22195165
000050 84 ad 8e bd 1c 57 b8 3d 8c 46 36 3e 5d b2 98 3e
       -0.06966689 0.0900099 0.17800349 0.2982358
000060 19 f9 c4 be 7b f0 f2 be ef 23 0e bf cc 25 18 bf
       -0.38471296 -0.47449097 -0.5552358 -0.59432673
000070 4b ec d3 be 4b ea 07 3e ea 0d fd 3e d8 a0 3c 3f
       -0.41391215 0.1327297 0.49424678 0.7368293
000080 c1 54 fb bd 37 da 03 be 0d fe 05 be a0 90 f5 bd
       -0.12272025 -0.12876211 -0.13085194 -0.11990476
000090 78 91 c9 bb 4f 2c d7 3d de d7 1b 3e 81 69 10 3e
       -0.0061513744 0.10506498 0.15219066 0.14102747
0000a0 e6 fb 79 be 93 d8 8f be 02 ee 8a be 40 70 77 be
       -0.24412498 -0.2809492 -0.2713471 -0.24163914
0000b0 ea e4 0f bd 23 f5 5c 3e e8 75 9c 3e 9d cf 97 3e
       -0.03513042 0.21577887 0.30558705 0.29650584
0000c0 3c 68 52 be 34 72 92 be 4f a1 bb be fa 81 a8 be
       -0.20547575 -0.28602755 -0.36646506 -0.32911664
0000d0 b5 63 be bd de fa 1c 3e 70 48 a2 3e 03 38 dc 3e
       -0.09296361 0.15330073 0.3169589 0.43011484
0000e0 53 1d 8d be 8a 44 83 be 4f 6f 5e be 1f 98 ec bd
       -0.27561435 -0.2563823 -0.21722148 -0.11552452
0000f0 1d 67 ea 3d 87 08 7c 3e c1 a1 89 3e 81 67 6c 3e
       0.114454485 0.24612628 0.2688122 0.23086359
000100 58 03 20 be e5 77 47 be 84 61 8e be 9c e6 aa be
       -0.15626276 -0.1947933 -0.27808774 -0.33379066
000110 8c 7d 1e be 82 72 cd 3d 72 ce 77 3e 44 22 b1 3e
       -0.1547758 0.10031606 0.24199846 0.34596455
000120 a5 a9 44 be 5a 77 4e be 5c 94 49 be 22 82 2e be
       -0.19205339 -0.20162717 -0.19685501 -0.17041829
000130 9f ed 08 bd 77 c0 2d 3e 9b 3b 50 3e a3 12 6b 3e
       -0.033429738 0.16967951 0.20335238 0.22956328
000140 9a 72 e3 bd 30 02 fe bd c6 64 ad bd 42 1b 9f bd
       -0.11105843 -0.12402761 -0.08466487 -0.07768871
000150 7a 2e 0d bd d3 63 82 3c c4 36 ca 3d 15 cf 3b 3e
       -0.03446815 0.01591674 0.09873727 0.18340714
000160 69 37 21 be 63 73 04 be 74 52 92 bd 73 bb 4d bd
       -0.15743794 -0.12934642 -0.07144633 -0.050227594
000170 66 9d a5 3d 3b ce de 3d 6d 26 17 3e 60 a5 d7 3d
       0.08086662 0.10879179 0.14760752 0.1052959
000180 99 a1 35 be c0 a3 0d be 39 80 b3 bd ba e2 64 3b
       -0.17737426 -0.13831997 -0.08764691 0.0034925179
000190 77 7d 88 3b f6 4c 1b 3e c7 49 50 3e bb f6 d6 3d
       0.004165347 0.15166077 0.20340644 0.10496279
0001a0 84 a7 04 bd 73 23 66 bb 4e 8a 98 3c c8 8c 3b 3d
       -0.032386318 -0.0035116344 0.018620636 0.045788556
0001b0 3a 90 9a 3d 3e e1 2a b7 7b a9 3f bd 23 4f a9 3b
       0.0754704 -1.0185233e-05 -0.04679249 0.0051669045
0001c0 a1 c2 1d be 64 56 65 be 72 67 98 be c9 b4 b3 be
       -0.15406276 -0.22396237 -0.29766423 -0.35098866
0001d0 69 95 ed bd ea 20 e6 3d 34 c2 9a 3e 5a f9 a8 3e
       -0.11600763 0.112367466 0.3022629 0.3300274
0001e0 ac 31 ab bc 34 87 ac bd e9 ee 07 be ea c7 02 be
       -0.020897709 -0.084242254 -0.1327473 -0.12771574
0001f0 38 6c e3 bc e9 e3 a3 3d 56 9e b8 3d 6f 6e dd 3d
       -0.027761564 0.08002455 0.09014575 0.10812079
000200 ee 36 23 bd 0d 26 19 3d d2 23 c3 3a 98 6a b6 bc
       -0.039847307 0.037389804 0.0014887995 -0.022267625
000210 45 51 0d 3c 76 fb 21 3d 0e 11 35 3d e2 83 11 bd
       0.008625333 0.039546452 0.044205718 -0.035526164
000220 77 2f 13 bd c9 35 c8 bc 12 e5 c4 bd 22 c2 58 be
       -0.035933938 -0.02443971 -0.09614004 -0.21167806
000230 66 e1 10 bd bc 9b 8e 3c 53 98 58 3d da 60 fa 3d
       -0.035371207 0.017408244 0.052879643 0.12225504
000240 b2 ed 73 3d 4c ac 7b 3d 5a b1 17 3e 94 91 b2 3d
       0.059552856 0.061443612 0.14813748 0.08719173
000250 7b 4b 82 be 64 c0 fa bd 71 d5 5e bd 12 78 f2 bc
       -0.25448212 -0.12243727 -0.054402772 -0.02959827
000260 97 8a b4 be 34 2b b1 be d4 92 99 be 22 fb dd bd
       -0.35261986 -0.34603274 -0.29994833 -0.108389154
000270 f1 0e 71 3e f6 09 a2 3e f7 19 8b 3e 04 5b 57 3e
       0.23540856 0.31648225 0.27168247 0.21030813
000280 8c e0 3c be cb 86 55 be a8 3e 7c be 16 aa 96 be
       -0.18445033 -0.208522 -0.24633276 -0.2942664
000290 a7 1a 5a bd e6 5b 9f 3e a9 dd 9c 3e f9 14 20 3e
       -0.053248074 0.311248 0.30637863 0.15633
0002a0 89 7e 0a 3d ff 2f d3 3c cf 92 d1 3b 2e 30 23 ba
       0.03381208 0.025779722 0.006395675 -0.0006225136
0002b0 f9 7d 0b bd b6 c0 42 3b d7 81 bc bc 1a a6 3a bb
       -0.034055684 0.0029716915 -0.023011131 -0.0028480352
0002c0 1e ec 3a bc 64 f4 f9 bd ce fd 6a be 1d f4 90 be
       -0.011408834 -0.12204817 -0.22948381 -0.28311244
0002d0 93 a2 46 be e8 a1 dc bd cb 10 45 3e 7c 63 a5 3e
       -0.19397955 -0.10773069 0.19244687 0.32302463
0002e0 c9 90 b2 3d f9 c7 71 3d 83 02 7a ba 5c cf a4 3c
       0.08719022 0.0590286 -0.00095371174 0.020118408
0002f0 38 72 97 bc 55 b2 db bc 2f 21 9c bd fb 37 76 bd
       -0.018487081 -0.026818434 -0.07623517 -0.06011198
000300 2e 99 a3 bb 74 ca 29 3c 87 4d b5 3c f1 77 c2 bc
       -0.0049926257 0.01036321 0.022131694 -0.023738833
000310 90 8c 86 bd 5b db 3c bd 4d 8b 04 bd 54 ae 9b 3d
       -0.06569779 -0.04610763 -0.03235941 0.0760161
000320 df 58 6a 3d cf 96 95 3d 17 40 cf 3d ca 6f 08 3e
       0.05721366 0.07304155 0.10119646 0.13323894
000330 87 59 91 3d 8a f9 c6 bb 0d f1 93 bd 74 11 39 be
       0.07097154 -0.006072228 -0.07223711 -0.18073064
000340 c1 7f c6 3c ef 15 4c 3b 3c 2f 29 bc ea 0c 37 bd
       0.02423084 0.0031141003 -0.010326203 -0.04469005
000350 8c 1c 84 bd 7f 6a 22 bd 51 59 fd 3b 2b 46 bc 3c
       -0.064507574 -0.039652344 0.0077315946 0.022982677
000360 6e 58 d5 3c 94 ee 92 3d 65 26 fa 3d e8 c4 f6 3d
       0.026043143 0.071744114 0.122143544 0.12049276
000370 76 94 89 3d cf 3a 8b bc f2 5a d8 bd d9 83 d5 bd
       0.0671777 -0.016995816 -0.105642214 -0.104255386
000380 24 9c a0 3d e7 bf ac 3b 4a 69 45 bd 4b 36 aa bd
       0.078422815 0.0052719 -0.048196115 -0.08311137
000390 03 cf b4 bd 91 7e 6a bd fc a8 db 3b d2 da 5d 3d
       -0.08828547 -0.05724961 0.006703494 0.05416376
0003a0 20 a5 d1 bd e4 8a 7d bd 5a ee fd bc de e2 00 3d
       -0.10236573 -0.061900035 -0.030997444 0.031466357
0003b0 4b 7d b8 3d 1d 98 be 3d 4f 0b 4c 3d b7 a9 79 3d
       0.09008273 0.09306357 0.049815472 0.06095287
0003c0 77 32 8a 3d ce 05 8b 3d 2d 1e ad 3d 9a ff 11 3e
       0.06747907 0.067882165 0.08453021 0.1425766
0003d0 15 68 19 3d ac 00 57 bd a3 4b d9 bd b6 a1 f6 bd
       0.037452776 -0.052490875 -0.1061013 -0.12042563
0003e0 56 d3 13 bd 17 35 4d bd 40 d9 f6 bc 21 b4 a3 3c
       -0.036090218 -0.05009946 -0.03013289 0.019983353
0003f0 1f 12 d9 3d b1 62 94 3d c3 b3 bf 3b 41 13 36 bc
       0.105991594 0.072453864 0.0058502867 -0.011112989

enc_layers.0.E_si f4 [336, 1, 1, 8]
000000 7c 7b be 3e 6a 25 8a 3d 5f 1d 60 be 16 d5 f0 be
       0.37203586 0.067454174 -0.21886204 -0.47037572
000010 45 87 e4 be 26 84 6f be 4f 83 65 bc 4d 6a 31 3e
       -0.44634452 -0.23390254 -0.014008357 0.17325707
000020 e1 61 22 bd 2a 14 10 3d 5b c0 d6 3d f3 24 4d 3e
       -0.039644126 0.03517548 0.10485908 0.20033626
000030 3b 49 c8 3d 97 4e 57 bd 9a 9e 46 bd 25 f6 ce bd
       0.097795926 -0.052565183 -0.048491098 -0.10105542
000040 fa 80 85 bd 7f a8 db bd 69 4e 0c be f6 64 5a be
       -0.06518741 -0.107254975 -0.13701786 -0.21327576
000050 de a6 1a be 01 f6 9c bc 09 1f b4 3d d2 97 8d 3e
       -0.15102717 -0.019160273 0.08794982 0.27654892
000060 d8 2a 66 bb e2 3b 5c 3d 8f 91 a2 3d 00 ee 0d 3e
       -0.0035120752 0.053768046 0.07937919 0.13860321
000070 cb c8 e9 3d 37 98 d2 3c 6a 78 46 bd f3 14 1c be
       0.11415251 0.025707347 -0.04845468 -0.15242366
000080 09 80 e0 3c 9e e6 d0 bc 20 61 f3 bc a7 86 79 bc
       0.027404802 -0.025500592 -0.029709399 -0.0152298575
000090 7a 2c ad 3a e4 c1 54 bc 1f 84 67 bc 91 bf 41 3d
       0.0013212108 -0.01298568 -0.014130621 0.047301833
0000a0 9d 8a eb bd 3e 44 92 bd 14 72 fd bd b7 c8 8e bd
       -0.11501048 -0.071419224 -0.12375274 -0.06971877
0000b0 95 e3 ec bb c2 2b 87 3d e8 c8 b3 3d 1a 96 62 3e
       -0.0072292783 0.06600143 0.08778554 0.22127572
0000c0 4f 19 3a 3e ab 8b a7 3d d4 1e 9a bc 83 32 24 be
       0.18173717 0.081809364 -0.018813528 -0.16034894
0000d0 b3 6b d0 bd 6f de d1 bd 46 22 96 bd 9b e8 c7 bd
       -0.10176792 -0.10247504 -0.07330756 -0.09761163
0000e0 1f 1d 46 3d d0 36 f1 3c 4b 60 93 3b 22 d8 42 3c
       0.048367616 0.029445082 0.004497563 0.01189235
0000f0 2c 4c 99 bd 23 8f b2 bc 54 d6 00 bd 80 cb 25 3c
       -0.07485232 -0.021796769 -0.0314544 0.010119319
000100 0e 37 14 3d bb b9 e8 3c 30 e9 03 bd 6d 36 04 be
       0.036185317 0.028408876 -0.032204807 -0.12911387
000110 b4 a7 e6 bd f8 0b ad bd 87 fd e5 3c 29 ef 98 3d
       -0.112624556 -0.084495485 0.028074993 0.07467491
000120 11 e7 13 3e 41 92 7e 3d 60 10 2b bd 9d ef 19 be
       0.14443614 0.062151197 -0.041763663 -0.15032811
000130 3c 17 55 be cb 2d be bd ae 03 a0 bc a6 34 2d 3d
       -0.20809644 -0.09286078 -0.019533005 0.042286538
000140 0a 26 1b 3e 2f a9 8b 3d 9e fb 3c 3c 0f 27 06 bd
       0.1515123 0.068193786 0.0115346 -0.032752093
000150 15 f6 8b bd 6b fb e7 bd 9f a3 9a bd c5 a2 ff bc
       -0.06834046 -0.11327251 -0.075507395 -0.031205544
000160 70 e8 16 3d 7c 4f d8 3c 6e b0 9c bd 15 3a bf 3c
       0.036842763 0.026405089 -0.07650839 0.023343125
000170 97 12 16 bd 56 0d 1c bc 5e 11 5e bc 10 35 71 3c
       -0.036638822 -0.009524664 -0.013553945 0.014722124
000180 21 7f 63 3c 9f 66 04 bd 72 61 89 bd 3b 5d 6d bd
       0.01388529 -0.03232443 -0.06708039 -0.05795024
000190 65 da a3 3b 2d 6a 40 3d 37 ca 38 3c d9 5e 0d 3d
       0.0050004 0.046976257 0.0112786805 0.034514282
0001a0 af 9c cb 3d 76 ce 04 3e a3 c7 10 3e 4e 7f eb 3d
       0.099419944 0.12969384 0.14138655 0.11498891
0001b0 85 4a f3 bc 8f f2 f5 bd ca 84 04 be cc 85 16 be
       -0.02969862 -0.12009155 -0.1294128 -0.14699477
0001c0 2d f7 16 3d ed 16 38 bc a3 9b 26 bd 8b f2 09 be
       0.03685682 -0.011235935 -0.04067577 -0.13471429
0001d0 f4 71 d0 bd ad 30 8c bd 29 2f 6b 3d 60 1e ac 3d
       -0.10177985 -0.06845222 0.057418022 0.08404231
0001e0 9e 92 8e 3c 76 8b a1 bd 41 6a 40 bd 41 e2 a0 3c
       0.017403897 -0.07887928 -0.04697633 0.019639136
0001f0 78 e5 aa 3c 8a 6a a2 3c 66 fb 3c 3a 8c 00 2f 3d
       0.020861372 0.019826192 0.0007209092 0.04272513
000200 5e 36 50 be dd 60 30 be 7f 4c 1c be 81 f5 78 bd
       -0.2033324 -0.1722445 -0.15263556 -0.060781006
000210 19 7b 92 3d 03 6c 29 3e fd e9 40 3e cf 3a 3a 3e
       0.07152385 0.1654511 0.1883926 0.18186496
000220 b7 8f 0a 3e 2f 45 5f 3e 59 d8 99 3e f9 fc 88 3d
       0.13531385 0.21803735 0.30047873 0.06688876
000230 8f 10 28 be 2a 30 85 be da ff 5f be bc 8e 0b be
       -0.16412567 -0.2601331 -0.21874943 -0.13628668
000240 3f b8 19 3e c8 1f 6f 3c a3 52 6c bd b3 d8 47 be
       0.1501169 0.01459498 -0.057695996 -0.19516258
000250 e6 5c 9f be 66 3e 20 bd d7 c1 0e 3d 79 09 70 3d
       -0.31125563 -0.039122008 0.03485283 0.058602784
000260 0c f1 51 be a4 dc 46 be 06 46 f9 bd 30 69 e0 3c
       -0.20502108 -0.19420105 -0.12171559 0.027393907
000270 d8 3d 6f 3d 44 2b e2 3d 9b 6e 0a 3e 93 f0 15 3e
       0.05840859 0.110434085 0.13518755 0.14642553
000280 2e 11 93 be a9 d8 9d be 57 0a af be 06 20 76 be
       -0.28724045 -0.3082936 -0.34187576 -0.24035653
000290 b7 df 78 3e 20 1f 9b 3e 19 ec 4b 3e 27 43 83 3e
       0.2430409 0.30297184 0.19914283 0.2563717
0002a0 11 b0 14 3d ed 13 ac 3d 51 36 b1 3d 26 5a 54 bd
       0.036300723 0.08402238 0.08652938 -0.051843785
0002b0 01 56 89 bd 76 d4 e4 ba 15 9d 0f bd 16 b6 9e bd
       -0.06705857 -0.0017458338 -0.035061914 -0.07749574
0002c0 76 07 4d 3c 8a 44 88 bd d1 bc 0c be cd b4 1b be
       0.012513986 -0.06653698 -0.13743903 -0.15205689
0002d0 78 d9 b0 bd af 37 2a bd 5d e6 ce 3d 30 df 2f 3e
       -0.08635229 -0.04155701 0.10102532 0.17174983
0002e0 37 70 a3 3b a8 b6 49 bd 06 18 fb bd 41 77 12 be
       0.0049877423 -0.04924646 -0.122604415 -0.14303304
0002f0 00 9d 9f bd 72 fc 4c 3d 69 66 c1 3d 8d c9 a9 3d
       -0.07793617 0.050045438 0.09443361 0.08290396
000300 71 4d 10 be 34 e5 1c be 68 2f 3b be 60 cd 67 be
       -0.14092042 -0.15321809 -0.18279803 -0.22636938
000310 4b d9 24 be 6d 5d 26 3d 67 bd 4d 3e 1a df 93 3e
       -0.16098516 0.04061644 0.20091783 0.2888115
000320 0f 30 64 be 41 81 41 be 92 af 12 be c5 30 1d bd
       -0.22283958 -0.18896963 -0.14324787 -0.03837659
000330 0a 3a 7e bc ed 52 65 3c f6 7c 1e 3e 50 aa ae 3e
       -0.015516767 0.013996822 0.15477356 0.34114313
000340 09 16 09 3e 26 c5 8f 3d 75 d0 87 bd 3d 52 84 be
       0.13387312 0.07020025 -0.06631557 -0.25843993
000350 8c 9d 88 be 24 94 17 be 44 ee 8c bc 46 57 13 3e
       -0.266827 -0.14802605 -0.017203458 0.14388761
000360 e1 dc 33 3e 7e a1 86 3d 2d a6 5a bd a5 8b d0 bd
       0.17564727 0.06573771 -0.053381134 -0.10182885
000370 78 aa 27 be 91 69 f1 bd b0 91 03 bd f9 40 34 3a
       -0.16373622 -0.11787713 -0.03212136 0.0006876137
000380 e9 6a 96 3c 7c 66 f3 bc 8d 3d 85 bd 5d cb b8 bd
       0.018361526 -0.029711954 -0.065058805 -0.090231635
000390 0d ca 2e bd b4 1a 88 bc 09 ff 89 3d 58 9b 4d 3d
       -0.04267316 -0.016614296 0.06738097 0.050196975
0003a0 e9 4a fc bd 20 fb 15 be ef e2 27 be 7d 50 27 be
       -0.123189755 -0.14646578 -0.16395162 -0.16339298
0003b0 4c c2 2d bd 97 43 ef 3d 66 14 59 3e d4 3b 23 3e
       -0.042421624 0.116828136 0.21199188 0.15940791
0003c0 66 97 b5 3d a0 2e e9 3c cd 09 02 3c 8d f4 87 bd
       0.088667676 0.028464615 0.007936907 -0.06638441
0003d0 17 88 7c bd c8 bd d1 bc df 41 9f 3b a3 dd 89 bc
       -0.061653223 -0.02560319 0.0048601474 -0.016829317
0003e0 7e 98 2a bc dd 82 98 bc 77 b8 72 bc 0f 8b 8c bc
       -0.0104123335 -0.018617088 -0.014814488 -0.017156152
0003f0 7b 16 c6 3a bb a6 4e 3c d0 20 8c bb 3e 01 44 3d
       0.0015112901 0.012612994 -0.0042763725 0.047852747

enc_layers.0.I_se f4 [7, 7, 1, 1]
000000 22 70 43 3d a9 25 0d be 85 01 4b be 2e 52 50 be
       0.04771436 -0.13783897 -0.19824798 -0.20343849
000010 2e b6 76 be 5e a8 58 bd 42 ba fa 3e c8 99 80 3e
       -0.24092934 -0.052894942 0.48970228 0.25117326
000020 a3 e8 af 3d df 73 48 be 1f d5 70 be 58 15 0f be
       0.08589294 -0.19575451 -0.23518799 -0.13972986
000030 8c 1e 5c bc b2 81 bc 3d ef 1f 5a be 2f 44 ab 3e
       -0.013435017 0.09204425 -0.21301244 0.33450457
000040 23 0b 36 3d f8 0e 07 bc 71 f4 d1 bd 9b de 66 bd
       0.044444215 -0.008243315 -0.102517016 -0.056364637
000050 49 ac 9d bd ed a4 8f be 44 89 98 be 02 d4 c3 3e
       -0.076988764 -0.28055516 -0.29792225 0.38247687
000060 e1 cf c5 3d eb de 9b 3d 6a d0 80 bc 65 76 ea bd
       0.096587904 0.076108776 -0.01572438 -0.11448363
000070 51 9d 49 be b1 a0 ba be 67 5b 86 be de 35 c8 3e
       -0.19688918 -0.36450723 -0.2624161 0.39103597
000080 10 f0 03 3e 5c f2 00 3e 12 a9 d8 bd 0e b4 10 be
       0.12884545 0.12592453 -0.105791226 -0.14131185
000090 e8 cc 89 be 69 a5 b3 be 24 b6 53 be 63 9f ed 3e
       -0.26914144 -0.35087135 -0.2067495 0.46410665
0000a0 b6 3b 32 3e dc f1 21 bd f0 cc 21 3c 32 a0 e7 bd
       0.1740559 -0.039537296 0.009875521 -0.11309852
0000b0 16 c4 84 be 8a 32 94 be 91 b0 4b be f7 1f c1 3d
       -0.25930852 -0.28944808 -0.19891573 0.09429925
0000c0 a2 fd 6f 3e
       0.23436597

enc_layers.0.E_se f4 [15, 7, 1, 1]
000000 20 71 37 be a0 54 09 bf 68 74 ea be ab de b1 be
       -0.17914248 -0.5364475 -0.45791936 -0.34740195
000010 cc 00 01 be bb fb 0b bd 76 24 56 3f be ad 80 be
       -0.1259796 -0.034175616 0.83649385 -0.25132555
000020 26 eb ba 3d ee d9 84 be 31 81 68 be 73 71 b4 bd
       0.09126882 -0.25947517 -0.22705533 -0.08810701
000030 3e 49 56 3d c6 2d bf 3e c3 79 94 be 74 64 24 be
       0.052315943 0.3733961 -0.28999147 -0.16053945
000040 64 e8 3e 3e 7e b5 39 be fa df 20 be a2 31 58 bc
       0.18643337 -0.1813564 -0.1571044 -0.013195427
000050 d8 75 93 3e 9a d8 4a be dc 2a 99 be 1b 13 27 be
       0.28800845 -0.1980919 -0.29915512 -0.16315882
000060 46 2a 63 3e ca 90 4c b9 b6 a9 c6 bc 9f cf 15 3e
       0.22184095 -0.00019508894 -0.024250846 0.14629982
000070 c9 9c 7f be db 67 70 be 64 b6 9f be 2f c1 97 bd
       -0.24962153 -0.23477118 -0.3119384 -0.07409894
000080 a0 69 9f 3e 8b 4f 9f 3d 56 97 91 3d 17 c6 48 be
       0.31135273 0.077788435 0.07108943 -0.19606815
000090 79 c7 8a be 23 9b 84 be b8 7e 77 be b8 e3 2f 3d
       -0.2710531 -0.2589961 -0.24169433 0.04294178
0000a0 47 02 c5 3e 62 16 4b 3e a2 63 12 3d 87 2c 3f be
       0.384783 0.19832757 0.03573955 -0.1866933
0000b0 7e 6d 89 be 6a 4d 27 be dc 10 c9 bd 5b 1d ee 3d
       -0.26841348 -0.16338125 -0.09817669 0.11626693
0000c0 38 86 7a 3e cf 90 0d 3e 78 be b1 be f7 ac 73 be
       0.24465263 0.13824771 -0.3471563 -0.2379645
0000d0 06 3e 73 be 20 ee 61 bc e1 78 08 3d b3 d7 ad 3e
       -0.23754129 -0.013789684 0.033318404 0.33953628
0000e0 e7 33 03 be 9b 02 9c 3d e6 69 6a be 20 03 ae bd
       -0.12812768 0.076176845 -0.2289196 -0.0849669
0000f0 e6 e6 46 bd 88 2e f4 3d 04 73 41 3e 4e ba 23 be
       -0.048560046 0.11922938 0.18891531 -0.15989038
000100 5e c2 15 be 38 da 99 3d d1 76 11 be fb 92 18 bd
       -0.14624926 0.07512325 -0.14205481 -0.037249546
000110 d0 ea ee 3c df e6 63 3e 93 d3 cd bd a8 7e 7d be
       0.029164702 0.22256039 -0.1005012 -0.24755347
000120 05 4a 3e be b6 1f 21 3e 91 51 07 bd 87 65 a6 3d
       -0.18582924 0.15734753 -0.033036772 0.081248336
000130 0e 5b ef 3d 77 66 38 bd 9e 14 45 be fb e8 8a be
       0.11687289 -0.045019593 -0.19246146 -0.27130875
000140 d9 a6 06 be 8b f6 53 3e 23 ad d3 3c aa 6f bf 3d
       -0.13149585 0.20699517 0.025839394 0.0934747
000150 d8 67 75 bc ef 28 0c be c6 1e 76 be 53 94 66 be
       -0.014978372 -0.1368749 -0.24035177 -0.22517519
000160 b2 08 3f bd 9e 48 8c 3e e4 7c 61 3d 3a 3a 14 3e
       -0.046639152 0.27399153 0.055050746 0.14475337
000170 88 1b bb bd 6f 01 24 be 2e 6e 0c be b1 3b d6 bd
       -0.091361105 -0.16016172 -0.13713905 -0.10460604
000180 ac a0 3a 3d ab ed e9 3d 00 00 00 00 00 00 00 00
       0.045563385 0.11422285 0.0 0.0
000190 00 00 00 00 00 00 00 00 00 00 00 00 00 00 00 00
       0.0 0.0 0.0 0.0
0001a0 00 00 00 00
       0.0

enc_layers.0.skip_conv.weight f4 [8, 8, 1, 1]
000000 d3 f6 0b be b6 bf 85 3e 27 4d 30 3d ee df 8d be
       -0.13668375 0.26122826 0.04304233 -0.27709907
000010 41 dd 50 3e 13 7d 97 bd 6e 1d 01 be 5a 4a 1d be
       0.20396902 -0.07396903 -0.12608883 -0.15360394
000020 d3 0d 93 3e 6e 3f 9f 3c 58 dc d3 3d 86 84 8f be
       0.28721485 0.019439425 0.103447616 -0.28030795
000030 37 35 96 bd f1 44 41 3e b8 b2 a8 bb 42 bc 7d bd
       -0.07334369 0.18873955 -0.005148258 -0.061947115
000040 d6 0a e7 bc 47 c7 f1 3d b0 f5 6b be cb 2b c9 bb
       -0.02820341 0.11805587 -0.23042941 -0.0061392537
000050 01 91 84 be 1d b6 28 be b4 e0 80 be ad 32 3e 3e
       -0.2589188 -0.1647572 -0.25171435 0.18574019
000060 59 e8 c9 3d d6 6c ac 3e b9 f8 50 be 71 76 58 3e
       0.0985877 0.33676785 -0.2040738 0.21138932
000070 88 a8 a2 be 22 1c 9d be de ad 86 bd 19 3d ca 3d
       -0.31769204 -0.30685526 -0.06576131 0.09874935
000080 98 58 56 be be dc 0c 3e 3e 04 89 3c 50 ba 3a 3e
       -0.20932233 0.13756081 0.016725656 0.18235135
000090 4f cc 9b 3c 36 7b 36 3e 7b 8e 60 be 5a f3 98 3e
       0.01901832 0.17820439 -0.21929352 0.29873163
0000a0 90 9c 81 3e d0 91 b7 3c 65 17 41 be 73 1a 9c 3e
       0.2531476 0.022408396 -0.1885658 0.3048893
0000b0 3a 05 cf 3d 8a 99 a6 3c 93 e4 bf bd 10 ac 53 bd
       0.10108419 0.020336885 -0.09369769 -0.051677763
0000c0 5b cf 26 3e 80 d3 7b 3e 03 5c 6e 3d 42 b4 af 3e
       0.16290037 0.245924 0.058193218 0.34317213
0000d0 ef 25 bd bc 58 7d 23 be 6b 16 87 be 29 d7 9a 3e
       -0.023089377 -0.15965784 -0.2638429 0.3024228
0000e0 6a 24 0a b8 b4 5e 49 be e7 38 83 be c0 28 1c 3e
       -3.2935677e-05 -0.19665033 -0.2562935 0.1524992
0000f0 9b a9 40 3e 35 2d 6b be 09 e1 24 3e 30 96 65 be
       0.188147 -0.22966464 0.16101469 -0.22420573

enc_layers.0.skip_conv.bias f4 [8]
000000 a7 e1 8f 3e a6 70 fa bd 72 34 53 3e ca 7d 81 be
       0.28101847 -0.12228517 0.20625475 -0.25291282
000010 ec c5 03 3e 41 ae 83 3d 38 08 5d be d5 8a 89 bc
       0.1286847 0.06429721 -0.21585166 -0.016789833

enc_layers.0.residual_conv.weight f4 [8, 8, 1, 1]
000000 30 02 62 be 14 ea 21 be 97 f2 7b 3e 63 a1 39 be
       -0.22071147 -0.1581195 0.2460426 -0.1812797
000010 de 5f dc bd df 7a 02 be 52 2a 69 3e 95 79 27 3e
       -0.10760473 -0.12742184 0.2277005 0.16354974
000020 e6 9c 93 3e b5 ce 8d be 32 7a 84 3e 64 96 9e 3e
       0.28830642 -0.27696767 0.25874478 0.30974114
000030 2b 62 82 3e 10 0c 1f be c6 f9 6a 3e f6 2b 59 be
       0.2546552 -0.15531945 0.22946844 -0.21208176
000040 01 ab da be f4 d3 e8 3a 5d d0 18 be 9a 2d 8d 3e
       -0.4270859 0.0017763362 -0.14923234 0.27573854
000050 a7 8d 8a be 83 3f e9 3d ed d9 e7 3d 0c 6d 88 bd
       -0.27061197 0.11389067 0.11320863 -0.06661424
000060 cc 57 e0 bd a1 f0 82 3e b6 6f 2d 3e 5a 0b 52 bd
       -0.10954246 0.2557421 0.16937146 -0.051280357
000070 63 0a 8c 3e 0a 4a bc 3d 9f cd a0 be 11 a3 9f be
       0.27351674 0.09193809 -0.31406876 -0.31179097
000080 56 d4 9e be fc e6 93 3e ab 29 56 be 50 87 8c 3e
       -0.31021374 0.28887165 -0.20914333 0.27446985
000090 fa 75 e7 3c dd 1a 9e be 64 4a 30 3e 9d a0 02 3e
       0.028254498 -0.3087987 0.17215878 0.12756582
0000a0 9e ce 88 3e 34 3f 97 be ed 66 e0 bd 4e b6 14 be
       0.26720136 -0.29540408 -0.109571315 -0.14522669
0000b0 1b a6 3a 3e 19 c1 ae 3e c3 2a 7f 3e 20 be a9 3e
       0.18227427 0.34131697 0.24918656 0.33152866
0000c0 d2 82 21 3e e3 ad 5b 3e 16 e1 73 3e 3d d9 99 3e
       0.1577256 0.21453051 0.23816332 0.30048552
0000d0 f8 c4 0e 3e d8 97 d6 3d 0a b5 a9 3c d1 d2 34 3e
       0.13942325 0.10478181 0.020716209 0.17658545
0000e0 9e e4 98 bd 03 b4 bb bd 0a 76 d7 3b 9e c0 8f 3e
       -0.0746548 -0.09165194 0.0065753506 0.28076643
0000f0 53 aa a0 3e 39 bf 98 3e dd 0c 31 be 5a 7c af 3e
       0.31379947 0.2983339 -0.17290063 0.3427456

enc_layers.0.residual_conv.bias f4 [8]
000000 9d da 1e 3e fd 28 78 bd 30 10 11 bd 74 c4 83 be
       0.15513082 -0.060585964 -0.03541583 -0.2573582
000010 88 6e 9a 3e 35 e7 b1 be 6f 2a 9e be b7 a7 5a 3d
       0.30162454 -0.3474671 -0.3089175 0.0533826

enc_layers.0.poly.conv_1.weight f4 [8, 64, 1, 2]
000000 00 0c 0d 3d 32 b6 11 bd d2 95 1d 3d db 31 2d bd
       0.034435272 -0.035574146 0.038472958 -0.042283874
000010 6a 4b 86 3c 3e a0 80 bd 32 66 67 3d d2 82 58 bd
       0.016393382 -0.06280564 0.056493945 -0.052859135
000020 ae 6e 67 3d 1a e7 95 bd 38 3c 98 bc 2f 82 5b 3c
       0.056502037 -0.0731947 -0.018583402 0.013397737
000030 09 ea 31 bd a3 5c e7 3c e8 e9 46 3c 4b 27 3c bd
       -0.043436084 0.028242415 0.0121407285 -0.04593591
000040 cb 65 88 bd 2a ba 8d bd 5c fa 60 bd 29 e0 ab 3d
       -0.066600405 -0.069202736 -0.05492626 0.083923645
000050 dd 3b f5 3c 7e 11 b7 bd 16 ce 50 3c ef e9 34 bd
       0.029935772 -0.08938883 0.012744447 -0.04416841
000060 f3 b3 3b 3d 92 02 11 bd f5 db a4 bd ec 41 8a 3d
       0.04582591 -0.035402842 -0.08049766 0.06750855
000070 7e 47 6f 3d 2c 11 9d bd a7 22 34 bc e0 e1 c4 bc
       0.05841779 -0.07669291 -0.01099459 -0.024033487
000080 30 cd 51 3d c3 1b 6a bd 16 3a c4 bb 93 25 30 3d
       0.051221073 -0.057155382 -0.0059883697 0.043004584
000090 3a 99 ef bc 3b d8 c8 3c da 21 dd 3d 6a fb 33 3e
       -0.029247869 0.02451717 0.10797472 0.17576376
0000a0 85 bb 90 bc 7d 27 3c be c5 4d 1b 3d d0 94 24 bd
       -0.017667541 -0.18374439 0.037915964 -0.04018098
0000b0 d8 4e 31 bc 2e 26 fa bc 5a 16 04 3d c9 a1 58 3d
       -0.0108220205 -0.030535784 0.03224788 0.052888665
0000c0 df ad 8a 3d 88 63 37 bd a7 02 dc bc 40 89 b4 bd
       0.067714445 -0.044772655 -0.026856733 -0.08815241
0000d0 ea 5d 83 bd 44 5c 8d 3d bc 2b 65 bd c9 fe 13 bd
       -0.06414397 0.06902364 -0.05594991 -0.036131654
0000e0 db b8 ee bc e5 ed 7b 3d 8f bb 83 bd dd 03 e4 3c
       -0.02914088 0.06150617 -0.06432258 0.027833873
0000f0 ca 0b 84 bd 3c 48 35 3c b4 c0 5b 3d 59 f3 40 3d
       -0.06447561 0.011064585 0.053650573 0.047107074
000100 4a a2 f7 bc 09 76 21 3d 79 14 32 3a e1 63 99 3c
       -0.030228753 0.039419208 0.0006793212 0.018724384
000110 25 f6 26 3d 91 fc 9c bd 97 0f 1c bc f4 a5 c4 3d
       0.040762085 -0.07665361 -0.009525201 0.096019655
000120 40 a2 84 bd ac db 0c 3d 0f 8a 07 3d b2 b9 85 3c
       -0.06476259 0.034389183 0.033090647 0.016323898
000130 07 40 4c 3d 13 82 e5 3c 63 e1 42 bd 21 80 da 3d
       0.04986575 0.028016126 -0.047578227 0.1066897
000140 15 d9 14 3d 47 90 e5 bc 7d 9c f2 bd a4 d6 ea 3c
       0.036339838 -0.028022898 -0.11846254 0.028666802
000150 00 10 50 3d 9b 97 e8 3c 39 a7 27 3d 9e bd 3d 3d
       0.05079651 0.028392604 0.04093096 0.04632341
000160 b0 b7 a2 3d 7b 06 be 3d f9 d4 3f 3d 6f 5a 43 3b
       0.07945192 0.0927858 0.046833966 0.0029808541
000170 a2 31 63 3d 82 ff 2b 3c c7 90 0a 3d a4 59 3b bd
       0.055467255 0.0104979295 0.033829477 -0.045739785
000180 9d f5 5a 3d 1c a7 cb 3c c6 6e bd bb 3a 38 53 bc
       0.05345689 0.024859957 -0.0057810275 -0.012891823
000190 79 e0 29 bd 64 8d e3 3a 1c e9 1f 3e c2 76 59 3d
       -0.04147384 0.0017360863 0.15616268 0.053091772
0001a0 d9 47 f1 bc e1 5b ab 3b 3d bc 44 3d fd 67 1d 3d
       -0.029453205 0.0052294587 0.04803108 0.03842925
0001b0 56 70 66 3d d1 09 03 bd a1 25 a3 bb 91 50 dc bd
       0.056259476 -0.031991784 -0.004978851 -0.10757554
0001c0 b2 fe 98 3d a1 0b b1 3d eb 2c dd 3d 38 77 c8 3d
       0.07470454 0.08644796 0.10799583 0.09788364
0001d0 63 b7 e7 3d 62 71 8b bd 48 17 46 bc af 53 16 3d
       0.11314275 -0.068087354 -0.012090512 0.0367009
0001e0 e1 a2 96 bc 35 de bb 3b b2 a6 ab bb 7b b9 54 3d
       -0.018388214 0.0057332763 -0.0052383775 0.0519347
0001f0 92 a0 f3 39 c0 6a 82 bd ac f2 bd bc 50 df 47 3d
       0.00046468206 -0.06368017 -0.023187004 0.04879695
000200 1c 50 30 3d b5 da 26 bd 7f 8f 15 3c d3 99 8d 3d
       0.04304515 -0.04073592 0.00912845 0.06914105
000210 93 57 40 bd 88 3a 70 3c a1 6a 7a bd c4 af 25 bd
       -0.046958517 0.014662392 -0.061136845 -0.040450826
000220 2f c4 06 bc 96 7e 75 3d f4 2e 0e 3d 34 42 8f 3d
       -0.008225485 0.059935175 0.034712747 0.06995049
000230 d5 c3 bc 3d 6d 8e 84 bd 2a ae 81 3d fd ee a8 3d
       0.092170395 -0.06472478 0.06332047 0.082487084
000240 cf 64 e0 bc 66 5a c9 3c bf 96 8a 3d ad 6b 51 3d
       -0.02739182 0.024579238 0.06767034 0.05112808
000250 de d8 f4 bc 82 4b 29 3d 91 5f 83 bd b3 75 92 3c
       -0.029888567 0.041331775 -0.06414712 0.017878389
000260 08 f4 3f bd b4 69 47 3d 42 9a 77 3d 31 34 be 3c
       -0.046863586 0.04868479 0.060449846 0.023218246
000270 d3 43 90 bd c3 9e 9b 3c c0 e7 f3 3b b7 a9 e3 bc
       -0.070441864 0.018996602 0.0074433982 -0.027790887
000280 94 cf 02 3b 7c c9 f3 3c ea 03 f8 3c ea 96 ce 3d
       0.0019960152 0.029759161 0.030275304 0.10087378
000290 97 a1 78 bd f4 c6 92 bc f9 ac c8 bd 21 39 69 bd
       -0.06070098 -0.017917134 -0.09798617 -0.056939248
0002a0 ed e7 94 3d 17 4c 24 3e 52 0a 87 bd cb 48 e2 bc
       0.07270799 0.16044651 -0.06593765 -0.027622601
0002b0 38 38 7a bd 2b b4 98 bd 22 1b 20 bd bc a9 e8 3c
       -0.06108877 -0.07456239 -0.039088376 0.028401248
0002c0 f5 11 a2 3d 42 09 5b 3d 16 91 88 3c 79 0a 8c bb
       0.07913581 0.053475626 0.016670745 -0.0042737094
0002d0 5d f8 d1 3d c6 19 64 bc d9 da 8a bd 85 44 90 3d
       0.1025245 -0.0139221605 -0.06780023 0.07044319
0002e0 b8 a5 70 bd 2c 00 3e bd 86 bf ca 3d 77 bc 29 3c
       -0.05875179 -0.046386883 0.098998114 0.010359875
0002f0 dc 3e d4 3c 20 64 04 bd c0 bf 6b bd ab 52 da 3d
       0.02590888 -0.03232205 -0.057555914 0.10660299
000300 41 cb 1f bd 9c 60 e4 3d 5f 59 91 3d 7b 0a 0d 3d
       -0.039012197 0.11151239 0.07097124 0.034433823
000310 7f a0 e6 3c 38 ec 52 bd 31 fb 97 bd 08 fe 5b 3c
       0.028152702 -0.051494807 -0.07420958 0.013427265
000320 3f 6f 2e bd 0f ee 85 bc dd f9 a2 bc 9b c0 83 3c
       -0.04258656 -0.016348867 -0.019894535 0.016083052
000330 c1 7d 22 3c 18 13 7f 3d 6a 1b f1 bd 42 a5 1c bc
       0.009917677 0.06227407 -0.11772807 -0.009560885
000340 c2 05 90 3d 51 d5 20 bc 85 ac ad bc 0c a5 a5 3d
       0.07032348 -0.009816484 -0.021200428 0.08088121
000350 b8 e3 3f 38 f4 38 e9 3d 19 2e 93 bd 3d c1 3e 3d
       4.575003e-05 0.11387816 -0.07186527 0.046571005
000360 ab ae 9f bd b9 aa 8b bd bf 75 68 3a de 43 b8 3d
       -0.07796987 -0.06819672 0.0008867643 0.0899732
000370 42 c1 c5 bd 96 36 c6 bc a2 43 e5 bd 20 57 ad bc
       -0.096560016 -0.02419595 -0.111945406 -0.021159708
000380 d6 57 9f 3c 8e 4b 66 bc e3 bd 82 bd d9 51 71 3c
       0.019451063 -0.0140561 -0.06383874 0.014728987
000390 3f c5 77 bd 66 38 98 bd 82 29 16 be a6 f9 2e bd
       -0.060490843 -0.07432632 -0.14664271 -0.042718552
0003a0 ac 80 03 bc d6 be 92 3c 94 9e 1b 3d 62 24 d6 bd
       -0.008026283 0.017913263 0.03799303 -0.10456158
0003b0 95 2a bf bc 01 ef f8 bc b0 e4 2c 3d 93 e1 98 3c
       -0.023335734 -0.030387403 0.04221028 0.01866225
0003c0 be 31 fb 3c 42 78 eb 3d 1f 65 12 bc 7a 6a 2d bd
       0.030663367 0.11497547 -0.008935242 -0.042337872
0003d0 b8 9f b4 bd fd e8 0c be 1c 79 f1 3d b4 ec 0f bc
       -0.088195264 -0.13760753 0.11790678 -0.008784462
0003e0 a0 e2 f0 bc 48 cd 57 bd a7 6f 9f bd bd 17 eb 3c
       -0.029404938 -0.052686006 -0.07784968 0.028697843
0003f0 c7 3f 8f 3d fa 2d 7f bb 2b 11 6c 3d b6 24 eb 3c
       0.069945864 -0.0038937316 0.05763356 0.028704029

enc_layers.0.poly.conv_1.bias f4 [8]
000000 f9 c5 e2 3c 39 ab cc bc 0c 27 51 3c c3 70 3b 3d
       0.027682291 -0.02498399 0.012765657 0.045761835
000010 92 2c ae bb 4f 42 e4 bb 3a 0b ba 3c fd 6c ff 3c
       -0.005315372 -0.0069659124 0.022710431 0.0311799

enc_layers.0.poly.conv_2.weight f4 [8, 64, 1, 2]
000000 87 16 55 3d 1c cd 7f 3d 5d 4f cc 3d d9 49 87 3d
       0.052023437 0.062451467 0.09976075 0.06605882
000010 09 99 a3 bc 63 2d 2a bd 09 cc 98 bd 1e 5a 20 3b
       -0.019970434 -0.04154719 -0.074607916 0.0024467777
000020 e0 0a 20 bd 90 e4 d7 bb 92 95 26 bc 46 0a 10 bd
       -0.03907287 -0.006588526 -0.010167496 -0.035166048
000030 11 be cf bc 3f 32 44 3d ff f3 dc 3c 78 09 9b 3d
       -0.025359185 0.04789948 0.026971815 0.075701654
000040 59 ae 63 3d 14 3a 19 bd 2e 67 2f bd 59 6d b1 3d
       0.055586193 -0.037408903 -0.04282301 0.086634345
000050 2b 0e af bb 4b ee cc bc 3d 3a 34 3d 71 ba 94 3d
       -0.005342265 -0.02501597 0.044000853 0.072621234
000060 eb ac 0b 3d 7f bc ab bd 17 3a 1c 3d e2 18 82 bc
       0.034100454 -0.08385562 0.038141336 -0.015881006
000070 b2 1b 7e 3d 39 dd 15 bd ea 81 8a bd 99 d2 df 3b
       0.06203813 -0.036587927 -0.067630604 0.006830525
000080 e1 8a 9f 3d 88 f6 83 3d d3 86 5c 3c 8b fd 68 3d
       0.07790161 0.064435065 0.013459879 0.056882422
000090 5f 76 10 bd c4 23 20 3d 86 79 6a 3d 44 54 e2 3d
       -0.035269137 0.03909661 0.0572448 0.11051229
0000a0 9f 6c 41 bd bf 95 81 bd 8d 3d cb 3d 90 8f 60 bd
       -0.04722273 -0.0632739 0.09923849 -0.054824412
0000b0 a2 46 98 3d 17 19 84 bd 91 60 cb bb f5 e8 98 bd
       0.07435347 -0.06450098 -0.00620658 -0.07466308
0000c0 e8 90 8e 3c c7 f4 99 3d cd 31 10 3a 7e b6 07 be
       0.017403081 0.07517391 0.0005500585 -0.13253209
0000d0 60 a7 c5 bb 46 67 3b bd 75 5f 2d 3d f7 7e f4 3c
       -0.0060319155 -0.045752786 0.042327363 0.029845698
0000e0 ff 3f 04 bd 0f 9b 5d bd 52 d7 a8 bc 6b a2 60 3a
       -0.032287594 -0.054102954 -0.020610485 0.0008569124
0000f0 31 19 96 bd a4 c8 c6 3d cf 2c 1d bd ae 8e 2b 3d
       -0.07329024 0.09706238 -0.03837281 0.041884117
000100 a1 ac c8 bd 21 dd 97 bd dd ae 7d bd 82 52 a0 3d
       -0.09798551 -0.07415224 -0.06193434 0.07828237
000110 ec 2a 17 bd 4a fe 4d 3d a6 56 04 3e ec 29 cc 3c
       -0.036906168 0.050291337 0.12923679 0.024922334
000120 90 28 f5 bd 3d 7d 0b 3c 3e c0 0a bd 5b 0e 86 3d
       -0.11970627 0.008513746 -0.033874743 0.06545707
000130 85 aa 22 bd 60 23 42 bd b2 db a1 3c 71 75 b7 bd
       -0.0397134 -0.047397017 0.01975808 -0.08957947
000140 51 b2 29 bd 72 04 01 3c 14 8f d8 3d 3d 2f 39 3c
       -0.04142982 0.007874595 0.10574165 0.011302766
000150 ec 8c 87 3d f2 da ea 3d 16 a4 44 bd 13 af 92 bd
       0.066186756 0.11467542 -0.048008047 -0.07162299
000160 ee 56 c5 3c 14 73 86 bd 0e 05 e9 bc 5a 25 ef 3d
       0.024089303 -0.06564918 -0.028444793 0.11677046
000170 0b 72 c2 bd 7b 2d 6b 3d a2 e5 f1 bd de 64 a5 3c
       -0.09494408 0.05741642 -0.11811377 0.020189699
000180 b2 bc b9 3d b8 0b 2c 3d 3f ab 71 bc a0 bf 85 3d
       0.09069194 0.042003363 -0.014750301 0.0653069
000190 87 b5 5d bd 1c 1b 97 bd 50 b2 04 be e2 cf 22 bd
       -0.054128196 -0.073782176 -0.12958646 -0.039749034
0001a0 3d dd 5a 3c ae ae 24 bd 26 cf d7 bc a4 0e a3 3c
       0.013358411 -0.04020565 -0.026343893 0.019904442
0001b0 2d 50 33 bd 76 94 60 bd 0a 91 1b bc ca 52 66 3d
       -0.043777633 -0.054829083 -0.009495029 0.056231298
0001c0 ae 13 47 bc 89 41 19 bc 7d 61 96 3d d2 a7 39 bc
       -0.012150688 -0.009354004 0.07342813 -0.011331515
0001d0 55 43 de 3c 4f 8e c8 bc cc 19 08 3e d1 95 83 3d
       0.027131716 -0.02448192 0.1329109 0.064250596
0001e0 58 95 b3 3c 01 30 09 bd de d3 f4 bc db 22 94 3c
       0.021921799 -0.033493046 -0.029886182 0.018083027
0001f0 fb 94 5b bd ec 38 32 bd 98 1f 0c 3d c0 17 be bd
       -0.053608876 -0.043511316 0.034209818 -0.09281874
000200 04 73 78 3d b3 f0 a8 bd 6e ed d5 bd 4e 92 f3 3c
       0.060656562 -0.08249035 -0.10445677 0.02973285
000210 27 88 7d bd ba f6 33 3d e3 ee 99 3d ef af dd bc
       -0.061897423 0.04393647 0.07516267 -0.02706143
000220 52 9a 8c 3c b3 f7 51 3d 4f f9 fb 3b 8a 1b 67 b9
       0.01716343 0.051261615 0.007689632 -0.00022040136
000230 ce 7b c3 3d 8b 1a 58 3c c6 67 8b bc e1 f6 18 3c
       0.09545098 0.013189922 -0.017017256 0.009336204
000240 b6 4d d5 3c 89 bd 53 3d 0c e1 00 bd 26 10 f6 3c
       0.026038032 0.051694427 -0.03146462 0.030036997
000250 4c f3 8c bd af f2 64 3c 2e bb 1d bd 18 b8 1e 3d
       -0.06882343 0.013973876 -0.038508587 0.038749784
000260 ae dc 12 3d 55 e9 f8 bc 3f 42 a9 bd 5b f0 a5 3c
       0.035854988 -0.030384699 -0.082645886 0.020256212
000270 84 06 9e bd ae 61 ca 3d ad d6 05 bc 11 53 85 bd
       -0.077160865 0.09881912 -0.0081688585 -0.06509984
000280 1c 4a 7c bd 71 f3 04 bd 44 40 42 bd 69 0d 10 3d
       -0.061594114 -0.032458726 -0.04742457 0.03516904
000290 33 3c 07 bc 6a 33 3b 3d 8a 0e e5 bc 62 24 56 bd
       -0.008254099 0.04570333 -0.027961034 -0.05228079
0002a0 d5 c1 81 3c b8 83 0b 3e a0 d8 6e 3d 1f e5 c7 bb
       0.015839497 0.13624465 0.05831206 -0.0061003114
0002b0 ee b0 d0 3b 26 82 5c bd f7 11 9d 3c 92 38 93 bd
       0.006368748 -0.053835057 0.019173605 -0.07188524
0002c0 35 5f 9d 3d 30 3f b2 bd e5 60 72 bd 15 34 44 3d
       0.07684175 -0.08703458 -0.059174437 0.04790123
0002d0 8b f9 05 3d a1 a4 08 3e 71 24 3e bd 50 2e 83 3c
       0.032708686 0.13344051 -0.046421472 0.016013294
0002e0 33 bd ed bc 7b c1 84 3b d4 7c 96 bd f7 f9 02 3e
       -0.029020881 0.004051385 -0.07348028 0.12790667
0002f0 7d d6 0c bd 1d d3 13 3d 09 fe 6d 3d 85 66 23 be
       -0.03438424 0.036090005 0.058103595 -0.15957077
000300 6e 8d 8d 3d 08 cd 9b 3d 6b 9a e5 bb a6 f7 b0 bd
       0.06911741 0.07607466 -0.0070069334 -0.08640985
000310 5f 9f a3 3c aa 26 23 3d 6e 05 9e 3d a2 f1 70 3d
       0.019973455 0.039831795 0.077158794 0.05882419
000320 06 cb 44 3d 60 13 86 bd 96 4b 81 bd 43 a1 ec 3c
       0.04804518 -0.06546664 -0.06313245 0.02888549
000330 51 73 6b bd 84 3b f5 bc ec 3e c0 bd 90 40 99 3c
       -0.05748302 -0.029935606 -0.093870014 0.018707544
000340 37 cb 07 3d 9e 39 93 bd b9 6a 86 bd 4c eb 2c bd
       0.033152785 -0.07188724 -0.065633245 -0.042216584
000350 84 9e 12 bd f0 c8 0c 3c da dc 89 bd 3c 39 38 bd
       -0.035795704 0.008592829 -0.06731577 -0.044976458
000360 8a d6 8a bc ee 99 0d 3d 2d e0 29 3d ae da a6 bd
       -0.016948003 0.034570627 0.041473556 -0.081471786
000370 db 30 ab bb 8b 31 9e 3c c4 31 a8 bd dd c9 ad 3c
       -0.00522433 0.019310733 -0.08212617 0.02121442
000380 26 8f e9 3c 82 64 78 bd 69 a1 33 3d a3 ae ba 3c
       0.028510641 -0.060642727 0.043855105 0.022788351
000390 6a ed 06 be f3 f9 d5 bd e8 32 40 be d0 d8 3d be
       -0.13176504 -0.10448065 -0.18769419 -0.18539739
0003a0 4a a0 84 3c c1 67 8f bb 30 c3 5e bc 50 a6 b4 bd
       0.016189713 -0.004376382 -0.013596341 -0.08820784
0003b0 7b 47 87 3b 87 34 d4 bc d2 c4 fc bc b5 de 80 bd
       0.004128394 -0.025903953 -0.03085557 -0.06292478
0003c0 d9 3d 7c bd b0 c3 8d 3d 06 76 a6 bd 64 c7 c2 bc
       -0.06158242 0.0692209 -0.0812798 -0.023776717
0003d0 b3 07 c9 bc 72 68 b3 bd 60 be a3 3d 36 0d d2 bb
       -0.024539804 -0.08760156 0.079952955 -0.0064102663
0003e0 87 e1 76 bc 4a 04 6f 3d 7b a0 b9 bd 79 30 be bb
       -0.015068418 0.0583537 -0.09063812 -0.0058041182
0003f0 9d 90 3b bc 22 6c c9 3d 87 10 3e bd 4b 66 7b 3b
       -0.011448053 0.09835078 -0.04640248 0.0038360532

enc_layers.0.poly.conv_2.bias f4 [8]
000000 22 b7 4d 3d d7 c4 c7 bb 82 fd 0b 3d 6d c7 c3 3b
       0.050223477 -0.006096463 0.03417731 0.005974701
000010 c5 f1 5e bd 42 ea a2 bc 52 49 b9 3d 46 a2 8e 3c
       -0.05442979 -0.019887093 0.09047188 0.017411362

enc_layers.0.poly.conv_3.weight f4 [8, 64, 1, 2]
000000 2a 31 b7 3d 4f e0 c5 3c ec 07 f2 bd 0b cf e8 bb
       0.08944924 0.02415481 -0.11817917 -0.0071047596
000010 31 e2 d6 3c cb a1 a1 3d b6 19 c3 3d 70 d9 63 bb
       0.026230903 0.07892188 0.09526388 -0.0034767054
000020 07 34 14 bd cf 47 2f bd 4a ec f5 3c a1 72 da bc
       -0.03618243 -0.04279309 0.030019898 -0.026665987
000030 ac 8e 24 bd e9 50 c2 3c b4 04 14 bd 77 e2 d3 3c
       -0.040175125 0.023720222 -0.036137298 0.025864823
000040 5c d1 b6 bd 3c 21 b9 3b 3f 3a b5 bd 64 87 b1 bd
       -0.08926651 0.005649714 -0.08849 -0.08668402
000050 75 49 89 3d 0a e5 7b 3d 87 63 02 3d d2 6e 93 bc
       0.06703464 0.061497726 0.031833198 -0.01799718
000060 be cd 00 3d d5 fb 16 3d 10 b0 df 3d 03 b4 bc 3d
       0.03144621 0.03686126 0.10922253 0.09214022
000070 6f 3d 28 3d 45 ea 92 bc 73 5b b1 3d 55 b4 21 bc
       0.041074213 -0.017933974 0.08660021 -0.009869655
000080 0a 0f 8e 3d d9 2b fb bc 0b 32 83 3d 74 cf bd bb
       0.06936462 -0.030660557 0.06406029 -0.0057925526
000090 ce 35 8e 3d 5c 2e 9a 3d 7b 4a 68 bc 27 50 bb 3c
       0.06943856 0.075283736 -0.014177914 0.022865368
0000a0 4e 00 03 3d eb 3c 58 3d cc f6 9c 3c 38 96 65 bd
       0.031982712 0.05279247 0.01916065 -0.056051463
0000b0 dc 57 4a 3d 79 0f 3b bc c7 d5 ad bd 17 de 90 3c
       0.049400195 -0.011417263 -0.084880404 0.017684026
0000c0 87 65 a6 bd f3 1d 95 bd ad 32 11 bd 94 30 05 be
       -0.081248336 -0.07281103 -0.03544872 -0.13006812
0000d0 d6 5a b3 bc a1 84 c8 bd 9b e3 2d 3c 24 02 9d 3c
       -0.0218939 -0.09790922 0.010613347 0.01916606
0000e0 7b b7 2d 3d 56 43 fd bc 1a b8 d4 3c 34 29 a7 bd
       0.04241131 -0.030915897 0.025966693 -0.08162156
0000f0 2f c2 dd bc 43 76 6a 3c be e3 33 3e df 88 66 3b
       -0.027070133 0.014310422 0.17567345 0.0035176796
000100 76 11 e2 bd c2 27 bf 3c f0 af 8b 3d 51 2b 5b bd
       -0.11038487 0.023334388 0.06820667 -0.053508107
000110 10 ef 2e bd c6 64 2b 3d d5 fb 76 3d 18 40 d7 bb
       -0.042708457 0.041844152 0.06029876 -0.00656892
000120 15 5f 9c bc 20 bb 3c bd b3 52 2f 3d 6f 40 c3 3c
       -0.019088307 -0.046076894 0.042803477 0.023834435
000130 36 6f 4e 3d 26 40 82 bc 86 da 8d 3a c5 3a 19 3d
       0.050399028 -0.015899729 0.0010822571 0.037409563
000140 c1 f2 1b bd 96 19 16 3d 04 13 3c 3d a0 f2 d8 3b
       -0.038073305 0.036645494 0.045916572 0.00662072
000150 2c 6e a5 3d a0 49 cd 3d 31 50 53 bd c6 3c 2b 3d
       0.08077654 0.100238085 -0.05159015 0.041806005
000160 13 7c 60 bb 78 90 73 3d fe c8 36 3d 6a b9 d0 3d
       -0.0034253641 0.059463948 0.044625275 0.10191615
000170 74 a6 ba bd 43 fd a9 bd 19 d7 1f bd 8c 8c b4 bc
       -0.0911378 -0.08300259 -0.039023492 -0.022039674
000180 ce 45 99 3d 89 f8 ba bc 44 fe 6a bc 33 da 32 bd
       0.07484017 -0.022823589 -0.014342848 -0.043665122
000190 38 89 d0 bd d8 ca 5a bd 5a 1a 7e 3b e7 80 91 3c
       -0.101824224 -0.053416103 0.003877303 0.01776166
0001a0 cc 75 fd 3a 5b 52 68 3d 39 ce 55 3d 46 52 b2 3d
       0.0019337474 0.056719165 0.052198622 0.08707099
0001b0 b5 c9 84 bc ca 0b ba bc e8 87 7f bd 0a f9 2f 3d
       -0.016209463 -0.0227107 -0.06238547 0.04296211
0001c0 2a 23 d5 bb a5 db 07 bd 10 a3 c7 bd 6e 5f 3b 3c
       -0.006504436 -0.033168454 -0.097478986 0.011436326
0001d0 e1 95 c8 bc 89 1d 42 3b a8 12 c0 3c a8 57 a7 bd
       -0.02448553 0.0029619655 0.023446396 -0.08171016
0001e0 ed ce f1 bd 55 83 ba 3c f8 a0 1a bd c9 fd a7 bd
       -0.11807046 0.022767702 -0.037751168 -0.082027026
0001f0 e4 40 df ba 8d 22 11 bd 0d 04 03 3c 02 4b 75 bd
       -0.0017032889 -0.03543334 0.007996571 -0.059885986
000200 66 02 fe 3b 96 24 1f 3d 76 84 ae 3d 90 7f d9 3c
       0.0077517508 0.03885325 0.08521359 0.026550084
000210 6b 59 15 3d 92 43 6a 3d 1f 60 ce 3d 84 41 a1 bb
       0.03646223 0.057193346 0.100769274 -0.00492114
000220 40 99 67 3b c8 d3 97 3d ac 48 f1 bb 89 31 98 3d
       0.0035339147 0.07413441 -0.0073633995 0.07431323
000230 2f af 3e bc a4 9a 92 3d 95 13 fa 3c 59 41 84 bd
       -0.011638447 0.071584016 0.030526916 -0.064577766
000240 5a 10 28 bd 32 6d 35 bc 40 f9 10 bd a4 c1 7b 3c
       -0.04103122 -0.0110733975 -0.035393953 0.015365992
000250 ad c9 9b bd 59 d4 ad bd 5b 2e c4 bc 2f bf 09 bd
       -0.07606826 -0.08487768 -0.023947885 -0.033629593
000260 5d a8 83 bd b5 57 5c bc 7c 15 a0 3c 1e 11 05 3b
       -0.06428597 -0.013448645 0.019541495 0.0020304392
000270 e2 71 be 3d af d8 85 3d 72 60 0b 3d 61 d1 f0 3c
       0.09299065 0.0653547 0.034027524 0.029396715
000280 19 ad 82 3d d9 e9 e3 bd a5 88 93 bc 46 39 0c 3d
       0.06380672 -0.11128587 -0.018009493 0.034234308
000290 36 b9 52 bc 72 48 b7 3d 19 f0 96 bd 32 0f 81 bd
       -0.012861541 0.08949365 -0.07370014 -0.063017264
0002a0 a2 ea 9c 3d 09 f5 3f bd 3a 5b 56 3c de 34 40 3d
       0.0766194 -0.046864543 0.013083274 0.046925418
0002b0 a0 3b d2 bc 62 12 82 bc 20 27 f1 bc cf bb fa bd
       -0.025663197 -0.015877906 -0.029437602 -0.12242853
0002c0 34 e0 99 3d ab 3d 80 bd 7c 94 70 bc ba 11 01 3c
       0.075134665 -0.06261762 -0.014683839 0.0078777615
0002d0 dd de 4a bd 6c b2 c6 bd 18 49 d6 3c b6 0d 76 bd
       -0.049528945 -0.09702 0.0261579 -0.06007167
0002e0 78 b4 b3 bd 9b d4 d0 3c 83 fb 3b bc 77 b8 93 ba
       -0.08774656 0.025492003 -0.011473539 -0.0011270185
0002f0 1e 78 8f 3d 95 81 fa bc 44 6d 44 3c 8e 35 77 3d
       0.070053324 -0.030579368 0.011988942 0.060353808
000300 c9 66 1b 3d 08 13 df bc 8c 69 89 3d 87 16 c8 bc
       0.03793982 -0.027230754 0.067095846 -0.024424804
000310 6b f9 f5 3c 68 f9 00 3d 82 ae cb bd 99 12 80 3b
       0.030026158 0.031487852 -0.09945394 0.003908467
000320 27 47 ff 3d ca 4c d0 3d 0c f3 96 bd b6 4a a8 bc
       0.12464743 0.10170896 -0.07370576 -0.020543437
000330 b1 8c 8c 3d 11 50 c4 bd ba f1 1b 3d 7b ea 24 3d
       0.06862772 -0.09585584 0.038072325 0.04026268
000340 8e 0a 63 bc 11 9a 72 3d af 40 f6 bd 3c b3 cb bd
       -0.013857497 0.05922896 -0.12024056 -0.099462956
000350 11 ac 74 bd d2 f5 06 bd 49 7b a2 bd 28 3e 3f bd
       -0.059734408 -0.032949276 -0.07933671 -0.046690136
000360 bb 1f 9b 3c dc f8 d9 bc 8f 13 68 bc 4e 09 47 3d
       0.018936029 -0.026607923 -0.014164819 0.048592858
000370 90 0d af bc fc 0e bc bd 37 43 88 3d 30 25 21 bd
       -0.021368772 -0.091825455 0.06653445 -0.039342105
000380 86 4c f3 bb f6 17 e2 bc 26 f7 c7 3c 68 69 23 3d
       -0.007424894 -0.027599316 0.024409842 0.039895445
000390 27 93 66 bc 01 03 ed 3c 6d 1a 01 3d 82 84 b7 3b
       -0.01407317 0.028932096 0.031519342 0.005600513
0003a0 b9 11 99 3c 70 b9 98 bd 8e 5b 83 bd b1 21 c9 bc
       0.018685209 -0.074572444 -0.06413947 -0.024552198
0003b0 d7 b8 87 bd 91 27 dd bc 10 68 12 3d cb c5 b9 3d
       -0.06627052 -0.026996406 0.035743773 0.09070929
0003c0 8a 0c 35 bd 94 07 e6 3c ae 3e fd 3c 24 cf 1f bd
       -0.04420141 0.028079785 0.030913677 -0.039015904
0003d0 d5 0c 73 3d 71 4d d2 bc 08 9b aa bd 2c ae 29 bd
       0.05933841 -0.025671693 -0.08330351 -0.04142587
0003e0 19 73 3e 3d ea 68 81 bd 5a 54 67 3d f1 4d a1 bd
       0.046496484 -0.06318839 0.05647693 -0.07876194
0003f0 ab dd b6 3d d8 e4 bf 3d b4 27 57 bd 10 b5 f1 bc
       0.089289986 0.0936982 -0.0525281 -0.029505283

enc_layers.0.poly.conv_3.bias f4 [8]
000000 51 c2 d3 3d df 0f c8 3c 46 38 ad 3d a4 ce 6a bd
       0.10339797 0.02442163 0.08457999 -0.057325974
000010 4a ef 0e bc 44 0d cd bc 1e dd 6c 3c 4f dc 5c 3d
       -0.008724043 -0.02503074 0.014457015 0.05392104

enc_layers.0.poly.conv_4.weight f4 [8, 8, 1, 1]
000000 af ff 68 3e 47 58 72 3d 3c 0d b1 3e e8 ea 99 3e
       0.22753786 0.05916622 0.3458041 0.30062032
000010 b0 80 49 3e fc ac f5 bd 6b 7f a2 bd c6 7a 51 3e
       0.19677997 -0.11995885 -0.07934459 0.2045699
000020 6f db 81 be b4 f6 1f bd 52 50 12 bd c8 32 21 be
       -0.25362727 -0.039053634 -0.03572113 -0.15742028
000030 0a 2f e4 3d 16 6e 95 be 57 40 46 3a 67 42 37 be
       0.111417845 -0.2918555 0.0007562688 -0.17896424
000040 1c 7f e3 3d 94 30 9f 3e 72 66 9e 3d a6 fd bd bc
       0.111082286 0.3109175 0.07734384 -0.023192238
000050 2f 30 97 3d 3b e6 9c bc 5a 07 01 3e 72 e2 06 be
       0.07382237 -0.019152751 0.1260046 -0.1317232
000060 81 1f ce 3d 7d bb e8 ba 54 66 9e 3e 35 63 96 be
       0.10064603 -0.0017756071 0.30937445 -0.29372564
000070 23 76 9a be 19 23 0e bc 7b 8a 51 3e 5d 96 ef bc
       -0.30168256 -0.00867536 0.20462982 -0.029246503
000080 09 89 9b 3e ff 1b 06 3b c9 9e 81 bd 56 a6 6b be
       0.30377987 0.0020463464 -0.06329114 -0.23012671
000090 43 5f 65 3e 1c 8b 8e bd 5b 68 21 be 6b 7c 10 be
       0.2239962 -0.06960127 -0.15762465 -0.14109962
0000a0 1e a9 1a be 6e 6c 48 be 52 93 6e 3c f1 df af be
       -0.15103576 -0.19572613 0.014561491 -0.3435054
0000b0 1c cc 22 bd 45 9b bc 3e 4c 3e 51 3e c0 61 36 3d
       -0.039745435 0.3683721 0.2043392 0.044526815
0000c0 77 14 75 3d d5 b7 b0 3c 71 09 ae bd f1 05 9c be
       0.05983397 0.021572033 -0.084978946 -0.30473283
0000d0 f4 9b fe bc 09 fc 32 bd ec 1c 29 be c0 ad ab be
       -0.031080224 -0.04369739 -0.16514939 -0.33530998
0000e0 0d b5 9c 3e 63 4d 54 be 1d f1 ce bd 56 e4 ff 3d
       0.3060688 -0.20732646 -0.101045825 0.124947235
0000f0 a8 bd 39 3c 4e 64 49 be f0 fc 9a 3e 97 5c 8c be
       0.0113367215 -0.1966717 0.302711 -0.2741439

enc_layers.0.poly.conv_4.bias f4 [8]
000000 61 ff 38 be 77 8b 77 3e f6 f8 cb 3d 45 c8 ac 3c
       -0.1806617 0.24174295 0.09959595 0.02109159
000010 4e 4b 09 3e 3a 64 89 3e 45 18 48 3e e3 91 1b 3d
       0.13407633 0.2683428 0.19540508 0.037980925

enc_layers.1.I_st f4 [1, 1, 1, 8]
000000 03 27 c4 be 61 cf ee be 12 c9 fb be 78 00 03 bf
       -0.38311014 -0.46642593 -0.49176842 -0.5117259
000010 36 34 23 bf 74 82 55 bf 57 36 d1 bd 68 43 3d 3f
       -0.6375154 -0.8340218 -0.10215443 0.7393098
