checkpoints/long_term_forecast_ECL_168_96_SSCNN_custom_ftM_sl168_ll48_pl96_dm8_el4_lt1_se1_st1_si1_lta1_sea1_sta1_0/checkpoint.pth (torch, 106761 bytes, 72 tensors)

enc_layers.0.I_st f4 [1, 1, 1, 8]
-0.121013254 -0.27479327 -0.35453343 -0.46242997 -0.71083933 -0.8966084 -0.18916203 0.6056308
00000000: ccd5 f7bd b4b1 8cbe 6885 b5be 9fc3 ecbe
00000010: 91f9 35bf 2188 65bf b1b3 41be 9f0a 1b3f

enc_layers.0.E_st f4 [96, 1, 1, 8]
0.47248057 0.047715694 -0.32851002 -0.6427218 -0.581422 -0.21147488 0.12646979 -0.009054115
0.76557535 0.6481428 0.38349637 0.14707483 -0.08791312 -0.4844882 -0.641331 -0.89656246
0.22957239 0.20075355 0.14799747 0.071498655 -0.13186465 -0.110309824 -0.15088992 -0.3058913
-0.09685046 -0.09098583 -0.123796575 -0.13752687 -0.013390667 0.01632164 0.24866366 0.041525062
-0.085840374 -0.030907981 0.0048900363 0.04650213 0.06767265 0.048575044 0.012381431 0.036075637
0.072891414 0.014424609 0.042435255 -0.009227162 -0.09493913 -0.110403754 0.014032289 -0.009587844
-0.08509159 -0.061431628 -0.09980817 0.012610543 0.0108853495 -0.004791696 0.11124845 0.08371838
-0.069458134 -0.07919331 -0.092049465 -0.21118928 -0.01860107 0.06578711 0.11068834 0.14888439
-0.017627902 -0.0129022 -0.044145595 0.007646712 0.008044979 0.0004988636 0.028703326 0.026367294
0.080538906 0.030622758 0.017411118 0.0059500244 -0.042683072 -0.038646035 -0.09110607 -0.01645269
-0.054403275 -0.14068377 -0.20152219 -0.20045274 -0.042624723 0.10275774 0.1577878 0.15483296
0.0115068555 0.0037113836 0.06998537 0.10141643 0.12978485 0.0739301 -0.10197067 -0.09021833
-0.14236316 -0.16719243 -0.17842042 0.05364328 0.0052070455 0.19039011 0.20552886 0.07369576
-0.04447946 -0.015181227 -0.014671494 -0.104714975 -0.05888482 -0.0081771705 0.07018119 0.0939163
-0.12250665 -0.11160706 -0.078296974 0.044931296 0.2353496 0.10113365 0.120190956 0.03628117
0.19697626 0.030896515 -0.06607162 -0.1363864 -0.10961927 -0.025652755 -0.13735715 -0.0062618796
0.006783332 0.14685257 -0.003407538 -0.16052072 -0.09621091 -0.02272912 -0.037558623 -0.0075451233
-0.15188389 -0.14530179 -0.12761253 -0.021303738 0.093833745 0.06599162 0.10912915 0.19100775
-0.08310788 -0.15173954 -0.10699638 0.057149123 -0.007982304 0.123577096 0.14251626 0.08876167
0.006545064 -0.06947044 -0.13166168 0.08018585 0.19500817 0.01884415 -0.042673968 0.020168364
-0.19698372 -0.22697578 -0.25111455 -0.29273313 -0.33540857 0.09032059 0.39294586 0.24832271
0.10186263 0.12393252 0.03333169 -0.105983794 -0.1943765 -0.11199175 -0.03403453 0.020917363
-0.10606107 -0.21596108 -0.20884654 -0.10827049 0.079025105 0.14942147 0.20046222 0.14877227
0.035855148 0.04399199 0.042654436 0.14190851 0.034953512 -0.051476955 -0.0021074913 -0.10206491
-0.01845274 -0.01534452 -0.022189245 -0.098115236 -0.10211923 0.023717951 0.019949034 0.08520662
0.075364396 0.00040998188 -0.04981106 -0.061012298 0.0073301047 0.035963636 0.051009435 -0.07922407
0.10022908 0.08191175 0.0100693 -0.10292546 -0.18411846 -0.10031991 0.02738949 -0.035531707
0.029495334 -0.016734937 -0.017728126 0.025967993 0.060690876 0.04601427 -0.056238964 -0.020113904
0.06409361 -0.036366813 -0.14147295 -0.2434804 -0.20604764 -0.0746715 0.11028086 0.16257365
-0.10531178 -0.075873934 -0.017764544 0.115536615 0.17100194 0.12900859 0.013299625 0.023577943
-0.030499687 -0.02802551 0.0053847614 0.1090373 0.06568673 0.0032401336 -0.04485531 -0.0026624429
-0.042438034 -0.03665773 -0.031986456 -0.13135502 -0.021189382 0.017146362 0.077191055 0.08617377
00000000: f9e8 f13e 8871 433d 7732 a8be 6a89 24bf
00000010: 12d8 14bf df8c 58be 4c81 013e b657 14bc
00000020: bffc 433f b0ec 253f a359 c43e c99a 163e
00000030: cb0b b4bd d60e f8be 452e 24bf 1e85 65bf
00000040: 0615 6b3e 5792 4d3e a68c 173e e36d 923d
00000050: 8707 07be 1eea e1bd e382 1abe c99d 9cbe
00000060: 8959 c6bd c756 babd 0f89 fdbd d8d3 0cbe
00000070: 8764 5bbc f6b4 853c b0a1 7e3e 2f16 2a3d
00000080: 14cd afbd bc32 fdbc 993c a03b 0479 3e3d
00000090: f597 8a3d a0f6 463d 7cdb 4a3c 0cc4 133d
000000a0: 1848 953d 3255 6c3c 97d0 2d3d 862d 17bc
000000b0: 726f c2bd 5d1b e2bd b0e7 653c 5516 1dbc
000000c0: 8044 aebd bb9f 7bbd 3a68 ccbd 739c 4e3c
000000d0: 7758 323c a903 9dbb 3ad6 e33d 8b74 ab3d
000000e0: 1140 8ebd 1a30 a2bd 6e84 bcbd 0142 58be
000000f0: 4561 98bc 64bb 863d 92b0 e23d 2675 183e
00000100: 6468 90bc c063 53bc 03d2 34bd 4591 fa3b
00000110: 16cf 033c 2bc6 023a 3d23 eb3c 3900 d83c
00000120: 95f1 a43d 94dc fa3c c3a1 8e3c 6cf8 c23b
00000130: 72d4 2ebd 4e4b 1ebd d295 babd cbc7 86bc
00000140: f8d5 5ebd 680f 10be d55b 4ebe 7c43 4dbe
00000150: 4397 2ebd a672 d23d 2093 213e 888c 1e3e
00000160: 4087 3c3c af3a 733b 7d54 8f3d 6bb3 cf3d
00000170: 52e6 043e aa68 973d 00d6 d0bd 63c4 b8bd
00000180: a6c7 11be 7e34 2bbe d8b3 36be 0eb9 5b3d
00000190: dd9f aa3b a0f5 423e 2876 523e cded 963d
000001a0: 1830 36bd aeba 78bc b560 70bc ce74 d6bd
000001b0: 3631 71bd 8af9 05bc 28bb 8f3d 3057 c03d
000001c0: c4e4 fabd 3e92 e4bd 2a5a a0bd e109 383d
000001d0: 7cff 703e 291f cf3d ad26 f63d 909b 143d
000001e0: 25b4 493e b01a fd3c 8f50 87bd e0a8 0bbe
000001f0: 1180 e0bd ba25 d2bc 5aa7 0cbe 7430 cdbb
00000200: b746 de3b 8560 163e 0051 5fbb 8b5f 24be
00000210: 3a0a c5bd 6b32 babc 12d7 19bd 153d f7bb
00000220: 7387 1bbe fec9 14be dcac 02be 2d85 aebc
00000230: e82b c03d 9d26 873d 1b7f df3d 8997 433e
00000240: 7734 aabd 9c61 1bbe eb20 dbbd 3315 6a3d
00000250: 36c8 02bc fd15 fd3d c8ef 113e aec8 b53d
00000260: fa77 d63b 8546 8ebd 52d2 06be 7b38 a43d
00000270: 39b0 473e 0c5f 9a3c e6ca 2ebd 2038 a53c
00000280: 1ab6 49be 576c 68be 1692 80be 1ee1 95be
00000290: acba abbe 00fa b83d 3330 c93e 4f48 7e3e
000002a0: 5b9d d03d 55d0 fd3d cf86 083d 080e d9bd
000002b0: a20a 47be ee5b e5bd cb67 0bbd e45a ab3c
000002c0: 8c36 d9bd e724 5dbe dedb 55be ebbc ddbd
000002d0: ead7 a13d f101 193e f845 4d3e c257 183e
000002e0: d9dc 123d f230 343d 6bb6 2e3d 7750 113e
000002f0: 6a2b 0f3d 80d9 52bd d61d 0abb 6807 d1bd
00000300: 332a 97bc 9567 7bbc 38c6 b5bc a4f0 c8bd
00000310: e323 d1bd 264c c23c 286c a33c cf80 ae3d
00000320: a658 9a3d d6f2 d639 af06 4cbd 08e8 79bd
00000330: 6031 f03b 9b4e 133d 45ef 503d 3b40 a2bd
00000340: e744 cd3d 59c1 a73d b5f9 243c 95ca d2bd
00000350: 8d89 3cbe 8674 cdbd ec5f e03c b289 11bd
00000360: 33a0 f13c b517 89bc 933a 91bc d4ba d43c
00000370: ff96 783d 7679 3c3d d45a 66bd eac5 a4bc
00000380: 8343 833d 5ef5 14bd 49de 10be ed52 79be
00000390: 27fe 52be 5fed 98bd eeda e13d b579 263e
000003a0: b4ad d7bd cb63 9bbd f386 91bc 769e ec3d
000003b0: 221b 2f3e d41a 043e ace6 593c 8826 c13c
000003c0: 7bda f9bc c195 e5bc a772 b03b f34e df3d
000003d0: c486 863d 6c58 543b 34ba 37bd 617c 2ebb
000003e0: 81d3 2dbd 6a26 16bd 3b04 03bd ee81 06be
000003f0: 5b95 adbc 8776 8c3c 5816 9e3d e07b b03d

enc_layers.0.E_si f4 [96, 1, 1, 8]
0.11851022 -0.0606494 -0.2984316 -0.5001374 -0.47607613 -0.07669714 0.13524418 0.38925704
0.14240639 0.19803469 0.13172506 -0.09141344 -0.32632518 -0.36012572 -0.11132218 0.16926683
0.18445747 0.13390604 0.022925725 -0.24823827 -0.38366726 -0.2707153 -0.14944121 0.16841543
0.13431048 0.042517077 0.05846589 0.16679795 0.16894375 0.11849573 -0.19379862 -0.25826275
0.19903332 0.17933585 0.12728122 -0.0014383105 -0.12210254 -0.21822163 -0.19606443 -0.07609685
0.013620567 0.108232155 0.12939638 0.051632207 0.021736154 0.015881056 -0.116621524 -0.16318665
-0.06299015 -0.025793254 0.02155221 0.0051992806 -0.0058307825 0.05344506 0.0052942215 0.063896984
0.25639015 0.21256101 0.098766126 -0.045728408 -0.14299767 -0.18075137 -0.1822072 -0.19301787
0.005624089 0.052615415 0.09163974 0.07189685 0.032424018 -0.012436309 -0.042331643 -0.11348701
0.1275926 0.112652354 0.06935584 -0.061259642 -0.22623643 -0.21229711 -0.09930309 0.024876703
-0.073767 -0.056309056 0.057938404 0.21240556 0.22258066 0.06283583 -0.05635692 -0.09568553
-0.07350617 -0.104591236 -0.1251023 -0.0014651676 0.09680937 0.009502392 0.07946315 0.13170466
0.040621363 -0.054948777 -0.110668145 -0.0840447 -0.026624966 0.0548172 0.074167676 0.029352397
0.025791816 0.044723973 0.050487302 0.047610056 -0.024043573 -0.030322777 -0.034375664 0.0020501844
-0.1428839 -0.08423909 -0.006604959 0.058067873 0.06645396 0.047491644 0.14041993 0.024647571
-0.2410263 -0.2526926 -0.12006679 -0.031204574 0.05965003 0.09562468 0.22113205 0.21815251
-0.17793651 -0.1877726 -0.13918045 -0.11682393 0.01014129 0.09225164 0.18004805 0.22493708
0.07426283 0.13419892 0.09164372 -0.03733318 -0.07213744 -0.10272602 -0.11219637 -0.052719723
-0.0870664 -0.19098812 -0.23179044 -0.31467012 -0.10150097 0.17827073 0.2397274 0.19232664
-0.12661971 -0.29148194 -0.14853247 -0.12651247 -0.14078724 0.32563922 0.23927161 0.1681466
-0.024026131 -0.05206649 -0.1612514 -0.076596946 0.056991488 0.07419787 0.022907292 0.080504425
-0.17082644 -0.0897952 -0.030582659 -0.06412693 0.0074019185 -0.07385199 0.1565774 0.31249216
0.059619665 -0.06582159 -0.101006135 -0.10922613 -0.0621949 0.114150636 0.07061294 -0.016104857
-0.055884454 -0.15666735 -0.22564414 -0.3469466 -0.27595633 0.060017206 0.112801544 0.39923048
0.024442613 -0.021669447 -0.15238221 -0.29458672 -0.3116836 -0.12181939 0.068350956 0.27301157
0.17147757 0.019606138 -0.033279464 -0.08067252 -0.10695204 -0.100980945 -0.15480761 0.05308054
0.15098487 0.1130956 0.058550168 -0.038959723 -0.12471867 -0.13115329 -0.17117819 -0.0154239815
-0.065005735 -0.06047096 -0.05189111 -0.037494663 -0.006506965 -0.056804992 0.11322218 0.17257375
0.10015563 0.13494346 0.06435962 -0.063236184 -0.11748529 -0.06807869 -0.09503677 -0.061834145
-0.16869324 -0.16405025 -0.047595203 0.05147099 0.124691665 0.1152949 0.18547305 0.09401583
0.00043132316 -0.0075096227 -0.02790346 -0.06124724 -0.087547965 -0.039653517 0.024719795 0.09791064
-0.0069985245 0.028153112 0.053177 0.02071743 -0.004433598 -0.035900474 -0.023532221 -0.0056635058
00000000: 7cb5 f23d 816b 78bd 07cc 98be 0109 00bf
00000010: 40c0 f3be 6413 9dbd 737d 0a3e b34c c73e
00000020: fbd2 113e 9bc9 4a3e efe2 063e f836 bbbd
00000030: 1814 a7be 6662 b8be e2fc e3bd 4954 2d3e
00000040: 6be2 3c3e aa1e 093e bbce bb3c 2c32 7ebe
00000050: 0970 c4be 329b 8abe 1e07 19be 1875 2c3e
00000060: b088 093e 6326 2e3d ee79 6f3d 15cd 2a3e
00000070: 97ff 2c3e e4ad f23d 2573 46be 043b 84be
00000080: 64cf 4b3e d1a3 373e 0256 023e b185 bcba
00000090: e610 fabd 7e75 5fbe 1dc5 48be aad8 9bbd
000000a0: cc28 5f3c d2a8 dd3d 7c80 043e 4b7c 533d
000000b0: 0510 b23c fd18 823c 44d7 eebd 671a 27be
000000c0: fb00 81bd 604c d3bc 438e b03c ba5e aa3b
000000d0: 2610 bfbb 35e9 5a3d 267b ad3b 6cdc 823d
000000e0: 9245 833e 98a9 593e e545 ca3d b64d 3bbd
000000f0: fb6d 12be e316 39be 8694 3abe 7aa6 45be
00000100: 474a b83b 4383 573d 9ead bb3d a83e 933d
00000110: 0ccf 043d a9c1 4bbc f263 2dbd e16b e8bd
00000120: a2a7 023e 47b6 e63d 6f0a 8e3d 64eb 7abd
00000130: 86aa 67be 6a64 59be 6b5f cbbd 3aca cb3c
00000140: 2713 97bd 53a4 66bd d250 6d3d d880 593e
00000150: 2fec 633e 12b0 803d 84d6 66bd c6f6 c3bd
00000160: 678a 96bd ee33 d6bd d11a 00be de0a c0ba
00000170: fe43 c63d ecaf 1b3c 93bd a23d 96dd 063e
00000180: 9662 263d f811 61bd fba5 e2bd a11f acbd
00000190: 9a1c dabc 0088 603d 39e5 973d 7074 f03c
000001a0: 5c49 d33c 7c30 373d c6cb 4e3d c302 433d
000001b0: 07f7 c4bc 7967 f8bc 7fcd 0cbd 635c 063b
000001c0: 2850 12be 8b85 acbd 696e d8bb 94d8 6d3d
000001d0: 0419 883d 9986 423d 3eca 0f3e b4e9 c93c
000001e0: 99cf 76be ed60 81be 94e5 f5bd bca0 ffbc
000001f0: 9753 743d dfd6 c33d 7170 623e 5f63 5f3e
00000200: fd34 36be 7647 40be 5285 0ebe 6241 efbd
00000210: a727 263c 6eee bc3d 845e 383e e855 663e
00000220: 1c17 983d 716b 093e b4af bb3d adea 18bd
00000230: cbbc 93bd 0562 d2bd 36c7 e5bd a3f0 57bd
00000240: de4f b2bd 6492 43be 795a 6dbe 711c a1be
00000250: bedf cfbd 9a8c 363e 197b 753e 46f1 443e
00000260: 99a8 01be 1f3d 95be e518 18be 7c8c 01be
00000270: 882a 10be 2fba a63e 9e03 753e 9f2e 2c3e
00000280: 73d2 c4bc ac43 55bd 161f 25be dcde 9cbd
00000290: e86f 693d 0ef5 973d 13a8 bb3c 81df a43d
000002a0: 20ed 2ebe 8ce6 b7bd 7c88 fabc fb54 83bd
000002b0: cb8b f23b b63f 97bd d355 203e f9fe 9f3e
000002c0: c033 743d 78cd 86bd 4edc cebd f3b1 dfbd
000002d0: 14c0 7ebd cfc7 e93d 849d 903d 55ee 83bc
000002e0: 19e7 64bd 686d 20be 420f 67be fca2 b1be
000002f0: 264a 8dbe 9ad4 753d 7f04 e73d f067 cc3e
00000300: e03b c83c 2084 b1bc 150a 1cbe 12d4 96be
00000310: fe94 9fbe 727c f9bd 96fb 8b3d 2cc8 8b3e
00000320: d197 2f3e 0d9d a03c 0c50 08bd a237 a5bd
00000330: ac09 dbbd 19cf cebd e385 1ebe fb6a 593d
00000340: c79b 1a3e aa9e e73d 4dd2 6f3d 3b94 1fbd
00000350: 816c ffbd 0c4d 06be 5649 2fbe deb4 7cbc
00000360: ba21 85bd 66b0 77bd c68b 54bd 0194 19bd
00000370: 6138 d5bb 5aac 68bd 08e1 e73d 2cb7 303e
00000380: 651e cd3d 9e2e 0a3e face 833d f981 81bd
00000390: 219c f0bd d76c 8bbd a3a2 c2bd cd45 7dbd
000003a0: ecbd 2cbe cafc 27be 30f3 42bd 3fd3 523d
000003b0: 585e ff3d bc1f ec3d a6ec 3d3e 5f8b c03d
000003c0: 3723 e239 4813 f6bb cc95 e4bc 63de 7abd
000003d0: 594c b3bd ba6b 22bd 2b81 ca3c 6085 c83d
000003e0: e153 e5bb 5ba1 e63c 20d0 593d 9ab7 a93c
000003f0: b747 91bb 600c 13bd a5c6 c0bc ee94 b9bb

enc_layers.0.I_se f4 [7, 7, 1, 1]
0.027906647 -0.14658278 -0.40602013 -0.118803024 -0.107874565 -0.09372451 0.5486659 0.060106345
0.08083126 -0.09237862 -0.23359641 -0.056366555 0.07300385 0.2531048 -0.11509883 0.20016493
0.059699405 0.050451994 -0.048622772 0.064979605 0.043646034 0.11562259 -0.169503 0.28343052
0.043293282 0.100717545 -0.07413112 -0.07241328 0.7026259 0.037482243 0.15267047 0.45858496
-0.28095868 -0.5743414 -0.6894456 0.6885478 0.16346289 0.1993448 -0.12734368 -0.28794983
-0.091449425 -0.46684715 -0.25047827 0.029321777 -0.03679401 0.0035752086 -0.28273475 -0.18372786
0.28043216
00000000: 7b9c e43c cc19 16be dfe1 cfbe 004f f3bd
00000010: 57ed dcbd a3f2 bfbd 5e75 0c3f 1232 763d
00000020: dc8a a53d 0031 bdbd e633 6fbe 9ee0 66bd
00000030: 0b83 953d f496 813e efb8 ebbd 09f8 4c3e
00000040: 5d87 743d c0a6 4e3d ac28 47bd 0714 853d
00000050: 2fc6 323d 89cb ec3d 3292 2dbe ce1d 913e
00000060: 4c54 313d 0045 ce3d 0fd2 97bd 6a4d 94bd
00000070: 4adf 333f fb86 193d a655 1c3e a6cb ea3e
00000080: d1d9 8fbe 0a08 13bf 827f 30bf ab44 303f
00000090: d162 273e 0b21 4c3e 6266 02be 296e 93be
000000a0: d649 bbbd 9706 efbe b03e 80be 3934 f03c
000000b0: 51b5 16bd 0c4e 6a3b 9cc2 90be 2823 3cbe
000000c0: ce94 8f3e

enc_layers.0.E_se f4 [5, 7, 1, 1]
-0.07300529 0.20512699 0.1973277 0.13343167 -0.07832783 -0.08270658 -0.22734125 0.25927174
-0.2366677 0.101081535 0.16696236 -0.082092226 -0.13601957 -0.05457035 0.28873312 0.08622841
-0.1561876 0.090011515 -0.038420822 -0.07347007 -0.1916146 0.26497614 0.27247328 0.14595495
-0.30730218 -0.10934574 -0.09113289 -0.10221748 0.0 0.0 0.0 0.0
0.0 0.0 0.0
00000000: cc83 95bd cf0c 523e 4610 4a3e 50a2 083e
00000010: 576a a0bd 1162 a9bd 25cc 68be 44bf 843e
00000020: 0459 72be d603 cf3d 2ef8 2a3e f81f a8bd
00000030: b748 0bbe 2985 5fbd d4d4 933e 8598 b03d
00000040: a4ef 1fbe f557 b83d 275f 1dbd 7a77 96bd
00000050: 9e36 44be f4aa 873e 9e81 8b3e 3775 153e
00000060: b656 9dbe a9f0 dfbd e1a3 babd 6657 d1bd
00000070: 0000 0000 0000 0000 0000 0000 0000 0000
00000080: 0000 0000 0000 0000 0000 0000

enc_layers.0.skip_conv.weight f4 [8, 8, 1, 1]
-0.13883185 0.20794107 0.057650793 -0.26602542 0.1722486 -0.037803084 -0.12917167 -0.08698025
0.18854547 0.025757467 0.052298665 -0.28016478 -0.07545614 0.15235469 0.1228468 -0.074312694
-0.02937052 0.08985785 -0.22972402 0.016829086 -0.25311705 -0.1518645 -0.28936005 0.17392966
0.10345447 0.27927035 -0.2584645 0.118657105 -0.29404432 -0.27898654 -0.06283625 0.12348332
-0.21195647 0.08283016 0.07944299 0.29652867 -0.13050573 0.21816823 -0.27436206 0.2881168
0.27237365 0.04219937 -0.134604 0.297776 0.12743922 0.07957572 -0.10732179 -0.0702822
0.21423656 0.26123312 0.08483966 0.29008272 -0.04610479 -0.22812876 -0.26530424 0.29108116
0.00636977 -0.21677789 -0.2609676 0.22646601 0.11814991 -0.17825805 0.20137754 -0.18531995
00000000: f029 0ebe 81ee 543e 3d23 6c3d 7c34 88be
00000010: f061 303e 68d7 1abd 9445 04be b422 b2bd
00000020: 1012 413e 5301 d33c 2037 563d c271 8fbe
00000030: c088 9abd de02 1c3e 1a97 fb3d 4131 98bd
00000040: 729a f0bc 6407 b83d c63c 6bbe 27dd 893c
00000050: 8f98 81be 5e82 1bbe 0027 94be 9e1a 323e
00000060: f0df d33d 86fc 8e3e 7555 84be 7f02 f33d
00000070: fa8c 96be 53d7 8ebe 4bb0 80bd d3e4 fc3d
00000080: 1e0b 59be dca2 a93d 02b3 a23d 9bd2 973e
00000090: 4ba3 05be 7e67 5f3e 2f79 8cbe 0c84 933e
000000a0: 8f74 8b3e 3fd9 2c3d a2d5 09be 1976 983e
000000b0: 6d7f 023e 98f8 a23d 87cb dbbd 1df0 8fbd
000000c0: d460 5b3e 59c0 853e 6ac0 ad3d b985 943e
000000d0: 60d8 3cbd 969a 69be f5d5 87be 9708 953e
000000e0: 81b9 d03b 06fb 5dbe 8c9d 85be b5e6 673e
000000f0: 94f8 f13d 4789 36be ea35 4e3e 83c4 3dbe

enc_layers.0.skip_conv.bias f4 [8]
0.25258377 -0.13548705 0.17844008 -0.2472073 0.098104306 0.05427037 -0.21263446 -0.004910776
00000000: a952 813e 1ebd 0abe ffb8 363e e923 7dbe
00000010: e9ea c83d 9c4a 5e3d d9bc 59be 93ea a0bb

enc_layers.0.residual_conv.weight f4 [8, 8, 1, 1]
-0.15070103 -0.17983155 0.2460753 -0.16933782 -0.14559197 -0.098709226 0.18591401 0.14112614
0.24167684 -0.29406667 0.24949627 0.2954919 0.2493669 -0.16276933 0.22697102 -0.21502244
-0.42608446 -0.0050237905 -0.17290336 0.2477648 -0.24019681 0.07600879 0.108561486 -0.036933195
-0.07468769 0.22465663 0.16360974 -0.1707607 0.26369032 0.056410827 -0.34312713 -0.28991064
-0.32053384 0.31929445 -0.20771071 0.18580443 0.035784483 -0.2887868 0.1799049 0.121765666
0.3438841 -0.3202083 -0.15262234 -0.19100022 0.18271677 0.3210421 0.22491695 0.33479157
0.10913493 0.19971016 0.23652008 0.26901007 0.074877284 0.16711904 0.03927577 0.2327144
-0.047398586 -0.09759513 -0.039514445 0.2300137 0.36801103 0.31229496 -0.12978455 0.30569375
00000000: 5f51 1abe c325 38be 2afb 7b3e e566 2dbe
00000010: 1016 15be 1028 cabd 3e60 3e3e 5f83 103e
00000020: 227a 773e e88f 96be f37b 7f3e b74a 973e
00000030: 095a 7f3e 01ad 26be 176b 683e d82e 5cbe
00000040: be27 dabe 9c9e a4bb 940d 31be 0eb6 7d3e
00000050: 27f6 75be 7faa 9b3d 7c55 de3d 4347 17bd
00000060: dcf5 98bd 630c 663e 5089 273e e5db 2ebe
00000070: 6b02 873e 0a0f 673d 5cae afbe 2b6f 94be
00000080: 031d a4be 907a a33e 1eb2 54be 8443 3e3e
00000090: c092 123d dddb 93be fd38 383e 4760 f93d
000000a0: 9411 b03e 58f2 a3be 0849 1cbe 9095 43be
000000b0: 1b1a 3b3e a15f a43e a150 663e cd69 ab3e
000000c0: 2282 df3d d280 4c3e 5232 723e b0bb 893e
000000d0: 4359 993d 4121 2b3e a1df 203d af4c 6e3e
000000e0: 0525 42bd f5df c7bd e6d9 21bd b688 6b3e
000000f0: f16b bc3e 20e5 9f3e 3ee6 04be e483 9c3e

enc_layers.0.residual_conv.bias f4 [8]
0.17120062 -0.060019698 -0.05185335 -0.24725936 0.29607284 -0.36374274 -0.28531575 0.05060816
00000000: 374f 2f3e 37d7 75bd 2e64 54bd 8f31 7dbe
00000010: dc96 973e 7d3c babe e814 92be 814a 4f3d

enc_layers.0.poly.conv_1.weight f4 [8, 64, 1, 2]
0.024304558 -0.028378045 0.048601862 -0.049476128 0.02652221 -0.06999761 0.04872828 -0.045255005
0.069739506 -0.07762673 -0.008454584 0.006205497 -0.053566247 0.03543741 0.002011913 -0.038743604
-0.07850293 -0.08070114 -0.066848926 0.0724307 0.042061146 -0.0777027 0.001195588 -0.05533114
0.05705491 -0.024412721 -0.06875674 0.078870215 0.04666641 -0.088053875 -0.0023741364 -0.01581392
0.045401454 -0.11195333 -0.009830357 0.09798648 -0.040280577 0.07595319 0.12626727 0.095208354
0.0022691186 -0.08330244 0.026328119 0.011028249 -0.017379995 -0.089761935 0.039176393 -0.0010642282
0.05937734 -0.041479968 -0.036742933 -0.13164666 -0.06461573 0.021726709 -0.067017354 -0.046691112
-0.02108555 0.059951145 -0.06513564 -0.015747473 -0.06733789 0.020326095 0.05051275 0.1043198
-0.048887495 -0.030071631 -0.017264154 0.045704443 0.042635377 -0.07446304 0.005464129 0.074866235
-0.07791102 0.054217387 0.028162114 0.014774024 0.042768653 -0.022861168 -0.030675946 0.093110025
0.013130036 -0.042472992 -0.086407706 0.028156273 0.09787715 0.034271564 0.02878884 0.032712925
0.09735569 0.10827552 0.091868356 0.008958463 0.03165536 -0.0011148022 -0.025937501 -0.05589796
0.015568101 0.042123724 -0.014160583 -0.068255275 -0.055187143 -0.040898718 0.050369 0.11190221
0.0045689857 -0.055937983 0.027610859 -0.008399036 0.019532125 0.0019296329 0.047115985 -0.03974877
0.045557722 0.03778699 0.11678813 0.13913915 0.10847013 -0.07452728 -0.018542599 -0.027382925
-0.017600533 0.04664435 -0.014521182 0.042415716 -0.01464556 -0.09628668 -0.03899466 0.023440799
0.047829606 -0.014010761 0.004349431 0.042422246 -0.05173729 -0.012056525 -0.06384169 -0.023613421
-0.011157469 0.03643321 0.029934062 0.04323179 0.09695786 -0.038000736 0.06809962 0.10920579
-0.021678103 0.031892896 0.07446246 0.059483577 -0.03537522 0.034268226 -0.05785052 0.02580089
-0.052332144 0.04147626 0.054687005 0.015837379 -0.06461015 0.0264394 -0.010922674 -0.047923215
0.03940927 0.14169525 0.007581196 0.005779058 -0.08095279 -0.11178246 0.01996178 0.1401202
-0.0050832173 -0.017674679 -0.08609809 -0.12162484 -0.031292655 0.027848111 -0.017598439 0.12311463
0.09957583 0.06413901 -0.07666746 0.018681217 0.04865574 -0.027591104 -0.060000267 0.080325365
-0.07074015 -0.06506674 0.047377758 -0.0041104006 0.049717624 -0.020027367 0.010629847 0.10007133
0.01145427 0.2129614 0.06618798 -0.0075306133 0.04019915 -0.06366385 -0.01985339 0.08364873
-0.09264355 -0.10258788 -0.008132562 0.006683016 0.056893483 0.16345777 -0.13184872 0.019291995
0.081477 0.008964888 -0.03924107 0.050847996 -0.007462847 0.07805379 -0.06805779 0.051668562
-0.08280628 -0.07476137 -0.0032216683 0.05719256 -0.08737413 -0.0059689945 -0.08641781 0.024637545
0.056840044 0.025420196 -0.030786792 0.051391266 -0.011832676 -0.0066529578 -0.1788079 -0.105092056
0.026090039 0.055396065 0.083436884 -0.037828706 0.023688711 0.014831982 -0.01992365 -0.043209746
-0.0029886297 0.13517725 0.03701965 -0.055090696 -0.037148267 -0.13641648 0.20919365 0.10090813
-0.084988825 -0.1421181 -0.026588367 0.031874306 0.03228784 0.01374122 0.011126274 0.043412358
00000000: 5a1a c73c 1379 e8bc bf12 473d 7ba7 4abd
00000010: 1b45 d93c e85a 8fbd 4e97 473d 505d 39bd
00000020: 96d3 8e3d c3fa 9ebd 1885 0abc 7b57 cb3b
00000030: 4868 5bbd d126 113d 4dda 033b 9db1 1ebd
00000040: 25c6 a0bd a446 a5bd 17e8 88bd 8c56 943d
00000050: 4f48 2c3d 9822 9fbd 47b5 9c3a e8a2 62bd
00000060: 69b2 693d 30fd c7bc 55d0 8cbd b586 a13d
00000070: 4725 3f3d 9755 b4bd 6697 1bbb 328c 81bc
00000080: e0f6 393d ca47 e5bd 810f 21bc 23ad c83d
00000090: 3ffd 24bd 598d 9b3d 354c 013e 99fc c23d
000000a0: 7eb5 143b 789a aabd 11ae d73c d4af 343c
000000b0: 7e60 8ebc 1bd5 b7bd 6d77 203d 937d 8bba
000000c0: a735 733d e6e6 29bd c27f 16bd 62ce 06be
000000d0: 4055 84bd 36fc b13c 6540 89bd 2e3f 3fbd
000000e0: 9abb acbc 558f 753d d665 85bd d800 81bc
000000f0: 73e8 89bd e982 a63c 75e6 4e3d 9fa5 d53d
00000100: 413e 48bd c858 f6bc 8e6d 8dbc 9534 3b3d
00000110: 6fa2 2e3d 1480 98bd 700c b33b 7853 993d
00000120: d08f 9fbd 0d13 5e3d 3cb4 e63c bf0e 723c
00000130: 2f2e 2f3d 5847 bbbc 1f4c fbbc 78b0 be3d
00000140: 5d1f 573c 29f8 2dbd 86f6 b0bd fca7 e63c
00000150: d173 c83d 5760 0c3d 93d6 eb3c fdfd 053d
00000160: 6c62 c73d 8ebf dd3d 7a25 bc3d 84c6 123c
00000170: 0da9 013d 8e1e 92ba e27a d4bc 42f5 64bd
00000180: 5911 7f3c ed89 2c3d ca01 68bc 6cc9 8bbd
00000190: ea0b 62bd 6a85 27bd b94f 4e3d fc2c e53d
000001a0: 6eb7 953b 3a1f 65bd 2b30 e23c 1c9c 09bc
000001b0: d601 a03c bceb fc3a b1fc 403d 9bcf 22bd
000001c0: bc9a 3a3d 88c6 1a3d 9d2e ef3d 7e7a 0e3e
000001d0: 9625 de3d c2a1 98bd a6e6 97bc 2852 e0bc
000001e0: fe2e 90bc 250e 3f3d 40ea 6dbc 1abc 2d3d
000001f0: eef3 6fbc f331 c5bd ddb8 1fbd eb06 c03c
00000200: fae8 433d 648d 65bc ac85 8e3b f3c2 2d3d
00000210: 7bea 53bd bb88 45bc 6fbf 82bd ef70 c1bc
00000220: d1cd 36bc fd3a 153d 4738 f53c d113 313d
00000230: d891 c63d a9a6 1bbd d077 8b3d 49a7 df3d
00000240: 4796 b1bc 20a2 023d c67f 983d 0da5 733d
00000250: 9be5 10bd d75c 0c3d abf4 6cbd 635c d33c
00000260: 3b5a 56bd 03e3 293d 7bff 5f3d 64bd 813c
00000270: 5452 84bd 7197 d83c 04f5 32bc 224b 44bd
00000280: 9d6b 213d 8f18 113e ae6b f83b 415e bd3b
00000290: 94ca a5bd 34ee e4bd e386 a33c ab7b 0f3e
000002a0: 1e91 a6bb 7dca 90bc 3254 b0bd 7216 f9bd
000002b0: ba2c 00bd b921 e43c 9a2a 90bc 8623 fc3d
000002c0: 6aee cb3d 505b 833d d403 9dbd 5a09 993c
000002d0: 3e4b 473d bd06 e2bc d7c2 75bd a081 a43d
000002e0: 36e0 90bd b641 85bd 2e0f 423d 8ab0 86bb
000002f0: b5a4 4b3d 6f10 a4bc cf28 2e3c 33f2 cc3d
00000300: b1aa 3b3c 8e12 5a3e 908d 873d 5dc3 f6bb
00000310: dda7 243d 3162 82bd 94a3 a2bc 0650 ab3d
00000320: e7bb bdbd 9819 d2bd 703e 05bc 34fd da3b
00000330: 2409 693d 7961 273e 5a03 07be 3f0a 9e3c
00000340: 6add a63d 77e1 123c 3fbb 20bd fd45 503d
00000350: e68a f4bb aada 9f3d e261 8bbd 6aa2 533d
00000360: 5796 a9bd 7d1c 99bd a022 53bb bf42 6a3d
00000370: 35f1 b2bd 8e97 c3bb d2fb b0bd add4 c93c
00000380: 1bd1 683d 043e d03c 9534 fcbc a67f 523d
00000390: d7dd 41bc 0e01 dabb 6b19 37be 813a d7bd
000003a0: c7ba d53c fce6 623d f5e0 aa3d 46f2 1abd
000003b0: d40e c23c d701 733c ec36 a3bc b4fc 30bd
000003c0: e3dc 43bb e86b 0a3e eba1 173d c8a6 61bd
000003d0: c828 18bd c3b0 0bbe dc36 563e eca8 ce3d
000003e0: 9f0e aebd 6887 11be d9cf d9bc a28e 023d
000003f0: 4140 043d db22 613c fa4a 363c 28d1 313d

enc_layers.0.poly.conv_1.bias f4 [8]
0.03905478 -0.032586116 0.023057958 0.03875771 -0.00083433255 0.0012311589 -0.02289155 0.01700951
00000000: e8f7 1f3d 0579 05bd 0be4 bc3c 68c0 1e3d
00000010: 1cb7 5aba d65e a13a 0f87 bbbc 8757 8b3c

enc_layers.0.poly.conv_2.weight f4 [8, 64, 1, 2]
0.053542003 0.06154123 0.09823921 0.06695912 -0.021492267 -0.040646143 -0.08000264 -0.0020630425
-0.038751446 -0.004278928 -0.011689311 -0.03426527 -0.023839219 0.046998624 0.028493632 0.074800946
0.03918002 -0.058010276 -0.05949539 0.06573777 0.011167565 -0.0042715133 0.027720891 0.052169982
0.050351687 -0.06363211 0.054844156 0.004968885 0.045372766 -0.057441287 -0.055513166 0.02301232
0.06603938 0.08576942 0.021922925 0.030967487 -0.032917242 0.01019112 0.057346147 0.14281051
-0.04684456 -0.06688467 0.1010713 -0.08367546 0.058885414 -0.047078975 -0.012199469 -0.047075637
0.019534448 0.07024314 -0.07589472 -0.21080641 -0.050106615 -0.078666285 0.026798151 0.009842504
-0.02273551 -0.038973823 -0.061999135 -0.029834013 -0.069509774 0.09675706 0.024448274 0.08761683
-0.18318719 -0.09313421 -0.08648356 0.044125166 -0.0660748 0.0155453775 0.034324527 -0.045282565
-0.033496708 0.055809308 -0.06514205 0.0293701 -0.1090809 -0.064228944 0.066841125 -0.04380175
-0.040713143 0.011996138 0.091099106 -0.047069516 0.0579708 0.085793495 -0.04962295 -0.0764726
0.024701023 -0.06464401 -0.035105582 0.09077006 -0.09595417 0.061163004 -0.09042463 0.08323895
0.06935326 0.05154991 -0.011053178 0.10174074 -0.080145106 -0.07480651 -0.18357448 -0.14048178
-0.02654764 -0.039444696 -0.053379193 0.015907092 -0.06779371 -0.0534947 0.033516936 0.060948092
-0.027961606 0.018586872 0.019459749 -0.08415861 -0.034340736 -0.100528516 0.07150025 0.038719878
0.070756555 -0.022144653 -0.09255303 -0.058913503 -0.05729257 -0.011703126 0.095024355 -0.018279137
0.009372706 -0.12171825 -0.05317571 0.06895667 -0.010616363 0.08315997 0.027766256 -0.059696108
0.070565395 0.09296017 0.058970615 0.039003175 0.04417196 -0.026034338 -0.06829815 -0.02988729
0.037343804 0.05473304 -0.019644976 0.033572786 -0.0798174 0.011267398 -0.027117778 0.041926604
0.023586068 -0.034694184 -0.09455082 0.016533332 -0.06553728 0.10219975 -0.017283948 -0.06596656
-0.039210334 -0.028166857 -0.089586176 -0.0058686687 -0.048173387 -0.0011282533 -0.19876301 -0.21641709
0.10514725 0.2423418 0.018839296 -0.053208135 0.03935962 -0.033423793 0.060900424 -0.028056977
0.10170428 -0.03882716 -0.12972665 -0.16508456 -0.029294683 -0.00957207 -0.03441646 0.023488728
-0.046094254 -0.021527857 -0.13293204 -0.010057755 -0.0041943984 0.09282562 0.15220518 0.042718835
0.08498769 0.06954928 0.0008573322 -0.09216836 0.030278271 0.05675881 0.009078436 0.011821449
0.08428458 -0.038379245 -0.051586542 0.048543632 -0.039551627 -0.031692218 -0.10048309 0.013119155
0.030038029 -0.08006018 -0.085784465 -0.037718233 -0.047881845 0.025428241 -0.07467614 -0.0535191
-0.011586182 0.044397812 0.02952549 -0.0665559 -0.0068753124 0.009858557 -0.06360267 -0.0040196218
0.010488277 -0.04923421 0.0030648208 -0.06462404 -0.08565406 -0.08303968 0.010870939 0.038900986
-0.06178397 -0.076255664 0.03375124 -0.06408118 -0.009722895 0.000550993 -0.040666807 -0.03469703
-0.06022176 0.0761891 -0.043052297 -0.02458229 -0.0048156907 -0.09607052 0.0006977203 -0.06454964
0.024553334 0.08682794 -0.07094507 -0.013429485 -0.006069294 0.10992951 -0.073317416 0.006909491
00000000: dc4e 5b3d a812 7c3d a431 c93d dd21 893d
00000010: 8d10 b0bc 927c 26bd 6dd8 a3bd 1c34 07bb
00000020: d6b9 1ebd 4036 8cbb 8684 3fbc bd59 0cbd
00000030: 774a c3bc a181 403d 7a6b e93c 3d31 993d
00000040: 3b7b 203d 2f9c 6dbd 70b1 73bd 86a1 863d
00000050: 2af8 363c 0df8 8bbb ec16 e33c 31b0 553d
00000060: 923d 4e3d 8d51 82bd 44a4 603d 07d2 a23b
00000070: cbd8 393d 8e47 6bbd c661 63bd 5584 bc3c
00000080: a83f 873d e1a7 af3d b597 b33c 87af fd3c
00000090: 3bd4 06bd a8f8 263c cbe3 6a3d eb3c 123e
000000a0: 15e0 3fbd d4fa 88bd 78fe ce3d 0a5e abbd
000000b0: d531 713d e2d5 40bd 48e0 47bc 62d2 40bd
000000c0: b506 a03c a3db 8f3d b16e 9bbd a3dd 57be
000000d0: 983c 4dbd ca1b a1bd cc87 db3c 7442 213c
000000e0: d23f babc 04a3 1fbd cef2 7dbd 7666 f4bc
000000f0: 245b 8ebd 9128 c63d bf47 c83c 7470 b33d
00000100: 6c95 3bbe 26bd bebd 4b1e b1bd 97bc 343d
00000110: 3a52 87bd 0ab2 7e3c e097 0c3d 367a 39bd
00000120: d833 09bd 4d98 643d 3269 85bd 9099 f03c
00000130: cf65 dfbd 778a 83bd 00e4 883d 7769 33bd
00000140: d3c2 26bd 738b 443c 2b92 ba3d f7cb 40bd
00000150: ca72 6d3d 80b4 af3d 6f41 4bbd ab9d 9cbd
00000160: cd59 ca3c 1464 84bd dfca 0fbd a7e5 b93d
00000170: 9f83 c4bd 0f86 7a3d 8c30 b9bd 2f79 aa3d
00000180: 1509 8e3d 0026 533d 6418 35bc 735d d03d
00000190: 1e23 a4bd 2834 99bd f3fa 3bbe 75da 0fbe
000001a0: 707a d9bc c390 21bd 24a4 5abd 974f 823c
000001b0: 6ed7 8abd 421d 5bbd 0e49 093d b5a4 793d
000001c0: bd0f e5bc 7f43 983c 0d6a 9f3c 595b acbd
000001d0: dfa8 0cbd e5e1 cdbd b96e 923d bc98 1e3d
000001e0: d0e8 903d b468 b5bc 718c bdbd 494f 71bd
000001f0: 9dab 6abd 78be 3fbc 219c c23d 21be 95bc
00000200: fa8f 193c 6b47 f9bd c6ce 59bd 2839 8d3d
00000210: 41f0 2dbc c64f aa3d 0f76 e33c e883 74bd
00000220: 9784 903d e761 be3d 2c8b 713d cbc1 1f3d
00000230: a8ed 343d f745 d5bc e7df 8bbd 31d6 f4bc
00000240: d1f5 183d c12f 603d 80ee a0bc 9e83 093d
00000250: 4e77 a3bd e49a 383c 1a26 debc 3bbb 2b3d
00000260: 9237 c13c 7d1b 0ebd dca3 c1bd e970 873c
00000270: 6938 86bd 1a4e d13d 1197 8dbc 7a19 87bd
00000280: 049b 20bd 2ebe e6bc f578 b7bd f64d c0bb
00000290: 7551 45bd e6e1 93ba 8888 4bbe 719c 5dbe
000002a0: 7157 d73d 7328 783e de54 9a3c c6f0 59bd
000002b0: 8e37 213d 63e7 08bd b972 793d bfd7 e5bc
000002c0: 554a d03d 3a09 1fbd 10d7 04be ed0b 29be
000002d0: 67fb efbc 2cd4 1cbc 46f8 0cbd 6f6b c03c
000002e0: 54cd 3cbd 305b b0bc 561f 08be 48c9 24bc
000002f0: 2a71 89bb 5c1b be3d addb 1b3e f2f9 2e3d
00000300: 070e ae3d da6f 8e3d 97be 603a c4c2 bcbd
00000310: 230a f83c ed7b 683d b8bd 143c c0ae 413c
00000320: 659d ac3d 8e33 1dbd 694c 53bd b0d5 463d
00000330: e300 22bd b3cf 01bd 14ca cdbd b9f1 563c
00000340: 5012 f63c 97f6 a3bd c4af afbd 6f7e 1abd
00000350: c11f 44bd e34e d03c ceef 98bd d836 5bbd
00000360: f8d3 3dbc 7bda 353d 71df f13c 764e 88bd
00000370: 4d4a e1bb c985 213c 1e42 82bd 08b7 83bb
00000380: 06d7 2b3c d0a9 49bd 29db 483b 9c59 84bd
00000390: 656b afbd b510 aabd 061c 323c a456 1f3d
000003a0: 3011 7dbd ee2b 9cbd bd3e 0a3d fe3c 83bd
000003b0: c74c 1fbc 8470 103a 3d92 26bd 791e 0ebd
000003c0: 18ab 76bd 0809 9c3d 9b57 30bd cc60 c9bc
000003d0: f1cc 9dbb 9fc0 c4bd 37e7 363a 9a32 84bd
000003e0: 1324 c93c d9d2 b13d a64b 91bd 5807 5cbc
000003f0: eee0 c6bb b922 e13d 7127 96bd 0369 e23b

enc_layers.0.poly.conv_2.bias f4 [8]
0.071171634 -0.008969334 0.04274428 0.022990702 -0.033079926 -0.03071665 0.08796777 0.016485797
00000000: 6fc2 913d 1df4 12bc a014 2f3d ff56 bc3c
00000010: d17e 07bd 7ca1 fbbc 7228 b43d 390d 873c

enc_layers.0.poly.conv_3.weight f4 [8, 64, 1, 2]
0.09828504 0.0235716 -0.1270189 -0.0065179174 0.017391155 0.07950897 0.11702348 0.010442525
-0.046490226 -0.044712394 0.021180186 -0.026078904 -0.03133668 0.023134071 -0.027297597 0.025277665
-0.095345974 0.0026849464 -0.092191465 -0.08730459 0.07353182 0.06494354 0.027042087 -0.019710306
0.03934693 0.04167038 0.11583056 0.095588 0.034460448 -0.021456605 0.079296924 -0.02047689
0.04693267 -0.068001926 0.06574103 0.0071886145 0.049522214 0.065183975 0.015255823 -0.019888636
0.015824728 0.08556458 -0.0027775757 -0.06833942 0.029675536 -0.043495387 -0.0788676 0.01299905
-0.091617525 -0.06309856 -0.020275284 -0.17137396 -0.008517162 -0.14876884 0.0067429785 0.01993103
0.045975134 -0.04674929 0.03741231 -0.1314663 -0.032585982 0.03212194 0.13896017 0.050742004
-0.124705456 0.041101363 0.07182005 -0.02142022 -0.03627567 0.048748463 0.047476504 0.0049396125
0.009830889 -0.03357372 0.04045305 0.02281863 0.04712473 0.003292203 0.014369242 0.031759717
-0.039384797 0.025569411 -0.0013656764 0.0026937884 0.04284304 0.11751251 -0.06278896 0.032043677
0.005144822 0.068782784 0.010886152 0.11923449 -0.091319606 -0.09667224 0.01993993 -0.033133186
0.092687115 0.031687498 -0.03349809 -0.044064295 -0.09445592 -0.0037551112 0.023768453 0.030679699
0.00039253233 0.0685541 0.044032164 0.12401638 -0.0007222864 0.017071247 -0.053631976 0.015380219
-0.006534808 -0.0017537934 -0.105472535 0.005348355 -0.062378142 -0.063180044 0.037053064 -0.047678668
-0.10645199 0.017231759 -0.07760906 -0.14948742 0.011911433 0.0053342 0.04247148 -0.010561536
-0.00473537 0.053860813 0.09769964 0.011540131 0.048948366 0.042183407 0.08553931 0.004913858
0.014090226 0.0587429 0.0051227207 0.059303228 -0.024124507 0.08659232 0.018040787 -0.0495678
-0.03822308 -0.009219004 -0.033927634 0.01592651 -0.078323245 -0.08627931 -0.021604009 -0.032248534
-0.06681533 -0.014967216 0.017816536 0.0013089504 0.09538019 0.06678213 0.031839233 0.028746398
0.030691763 -0.10778374 -0.0025276237 -0.00060105027 0.0035715022 0.05222666 -0.14376079 -0.14541104
0.14747909 0.046077233 0.029845938 0.009831523 -0.048828825 0.00067788066 -0.044960625 -0.085872255
0.079828985 -0.05024866 -0.01648105 -0.0032353303 -0.051573012 -0.118672036 0.028433198 -0.058402613
-0.089868136 0.024992138 -0.013597414 -0.02313309 0.072901115 -0.01185768 0.012336077 0.06781622
0.0635518 -0.008648021 0.064692944 -0.05930625 0.05909778 0.0109443 -0.10615804 0.0035158675
0.09277814 0.08477555 -0.037265696 -0.03542027 0.06866175 -0.087845266 0.02388678 0.063563585
-0.00891629 0.06693511 -0.1125486 -0.106658705 -0.07378446 -0.0517759 -0.07545314 -0.042574026
0.009878244 -0.033922292 -0.027913913 0.03062373 -0.010985337 -0.081787676 0.06700546 -0.024644138
0.04228946 -0.04402076 0.042013157 0.052738246 0.024005737 0.017092975 0.03160518 0.002674364
-0.017910643 -0.04395096 -0.015155362 -0.027976813 -0.047487818 -0.055116598 0.020170854 0.10127637
-0.10975614 -0.007051044 0.10214123 -0.049988985 0.15508877 0.0051110387 -0.11541227 -0.036081027
0.053559046 -0.085237905 0.15568335 -0.045809977 0.0032871882 0.048810195 -0.13533485 -0.04786768
00000000: ab49 c93d 3a19 c13c 3e11 02be 4194 d5bb
00000010: e577 8e3c 99d5 a23d 02aa ef3d 2017 2b3c
00000020: 896c 3ebd 5824 37bd 1282 ad3c 6da3 d5bc
00000030: e45a 00bd aa83 bd3c 369f dfbc 1b13 cf3c
00000040: c044 c3bd edf5 2f3b e1ce bcbd c0cc b2bd
00000050: da97 963d 1e01 853d 5e87 dd3c 8277 a1bc
00000060: 3f2a 213d 8fae 2a3d 9338 ed3d a4c3 c33d
00000070: 6626 0d3d c3c5 afbc 6d66 a23d 27bf a7bc
00000080: 793c 403d 9844 8bbd 3ca3 863d 788e eb3b
00000090: ced7 4a3d 2d7f 853d 8ff3 793c 7eed a2bc
000000a0: dca2 813c 7c3c af3d fd07 36bb 8af5 8bbd
000000b0: 1c1a f33c 3828 32bd 5685 a1bd f8f9 543c
000000c0: f8a1 bbbd d139 81bd 5a18 a6bc a87c 2fbe
000000d0: 918b 0bbc dc56 18be 34f4 dc3b 6646 a33c
000000e0: 6c50 3c3d 2f7c 3fbd a63d 193d 1a9f 06be
000000f0: e178 05bd 4c92 033d 934b 0e3e d9d6 4f3d
00000100: 9365 ffbd e759 283d 6416 933d 7579 afbc
00000110: cc95 14bd 78ac 473d b976 423d 79dc a13b
00000120: bd11 213c 9984 09bd 19b2 253d 23ee ba3c
00000130: dc05 413d 00c2 573b f86c 6b3c 7a16 023d
00000140: f451 21bd f176 d13c 7f00 b3ba 458a 303b
00000150: 2f7c 2f3d 66aa f03d 8097 80bd 3b40 033d
00000160: e595 a83b fddd 8c3d d55b 323c 3631 f43d
00000170: c605 bbbd 18fc c5bd 1059 a33c aab6 07bd
00000180: bed2 bd3d c0ca 013d 4b35 09bd c37c 34bd
00000190: 1b72 c1bd 5018 76bb 0fb6 c23c fe53 fb3c
000001a0: cccc cd39 1866 8c3d 125b 343d 4dfc fd3d
000001b0: d257 3dba 00d9 8b3c 34ad 5bbd 50fd 7b3c
000001c0: f121 d6bb 8bdf e5ba fc01 d8bd 4141 af3b
000001d0: 3980 7fbd 8a64 81bd f4c4 173d b54a 43bd
000001e0: 8003 dabd 9e29 8d3c 80f1 9ebd 3b13 19be
000001f0: 2c28 433c 83ca ae3b 93f6 2d3d 4b0a 2dbc
00000200: 2a2b 9bbb 289d 5c3d c016 c83d d112 3d3c
00000210: 157e 483d 82c8 2c3d 3c2f af3d 6e04 a13b
00000220: b1da 663c 659c 703d 7fdc a73b f1e7 723d
00000230: c2a0 c5bc 5057 b13d 46ca 933c 9b07 4bbd
00000240: ce8f 1cbd 4e0b 17bc b4f7 0abd 5078 823c
00000250: f067 a0bd 35b3 b0bd e4fa b0bc 0a17 04bd
00000260: 7ad6 88bd 0e39 75bc fcf3 913c 1691 ab3a
00000270: b056 c33d 12c5 883d db69 023d 917d eb3c
00000280: 4b6d fb3c b9bd dcbd 7da6 25bb cd8f 1dba
00000290: dd0f 6a3b 9feb 553d 0736 13be a2e6 14be
000002a0: c204 173e 7bbb 3c3d 787f f43c 6514 213c
000002b0: bc00 48bd cdb3 313a a228 38bd cbdd afbd
000002c0: 617d a33d 8ad1 4dbd 4403 87bc d607 54bb
000002d0: 393e 53bd 530a f3bd bdec e83c 9437 6fbd
000002e0: c90c b8bd 50bc cc3c b0c7 5ebc 9b81 bdbc
000002f0: 2e4d 953d b746 42bc 421d 4a3c 3be3 8a3d
00000300: 7227 823d 6eb0 0dbc bc7d 843d 1ceb 72bd
00000310: 8410 723d b94f 333c 6369 d9bd 786a 663b
00000320: 7702 be3d ce9e ad3d eaa3 18bd d814 11bd
00000330: 889e 8c3d 38e8 b3bd 35ae c33c a02d 823d
00000340: a115 12bc 4615 893d e17f e6bd e16f dabd
00000350: 4f1c 97bd f712 54bd 2d87 9abd 1a62 2ebd
00000360: 5cd8 213c 1af2 0abd b8ab e4bc 9ede fa3c
00000370: d8fb 33bc 4c80 a7bd 293a 893d 81e2 c9bc
00000380: b637 2d3d 1d4f 34bd fd15 2c3d 0f04 583d
00000390: aea7 c43c 9106 8c3c 6f74 013d 6244 2f3b
000003a0: 57b9 92bc ec05 34bd 324e 78bc a12f e5bc
000003b0: 9682 42bd f1c1 61bd 593d a53c fc69 cf3d
000003c0: d4c7 e0bd 720c e7bb 6c2f d13d 40c1 4cbd
000003d0: 97cf 1e3e 807a a73b 455d ecbd b3c9 13bd
000003e0: bb60 5b3d 3691 aebd 756b 1f3e 3ea3 3bbd
000003f0: de6d 573b 33ed 473d 3895 0abe e710 44bd

enc_layers.0.poly.conv_3.bias f4 [8]
0.105580196 0.023035945 0.100955196 -0.040798113 -0.024644794 -0.041518636 0.013496647 0.051074337
00000000: 6e3a d83d e1b5 bc3c 99c1 ce3d ec1b 27bd
00000010: e1e3 c9bc 720f 2abd 0a21 5d3c 5333 513d

enc_layers.0.poly.conv_4.weight f4 [8, 8, 1, 1]
0.13832785 0.0030442884 0.2824059 0.22492273 0.33504242 -0.2504987 -0.052716523 0.19224103
-0.27359822 -0.061545677 -0.1760534 -0.06070632 0.19235593 -0.117869414 -0.015272364 -0.298341
0.13051818 0.2933473 0.11444619 -0.062137835 0.09267952 -0.034446478 0.09490299 -0.06326835
0.09602801 0.076476954 0.2633658 -0.24480431 -0.15160312 -0.14040682 0.16659088 -0.08235318
0.24329183 -0.15811202 0.14155172 -0.32737768 0.20370123 0.10961001 -0.26382148 -0.22859907
-0.041049253 -0.21138148 0.010742349 -0.29842994 0.09822226 0.35578063 0.16401148 0.0040255194
-0.021616299 0.020823948 -0.08379008 -0.23514584 -0.072473034 -0.131145 -0.12677127 -0.30223238
0.30379945 -0.2144879 -0.0016480248 0.29093236 0.012682527 -0.124329865 0.22172849 -0.2474423
00000000: d1a5 0d3e af82 473b 8297 903e 2552 663e
00000010: ae8a ab3e 5e41 80be 48ed 57bd d5da 443e
00000020: 1115 8cbe 5217 7cbd 5847 34be 31a7 78bd
00000030: f4f8 443e 8565 f1bd f038 7abc 27c0 98be
00000040: 8fa6 053e 9e31 963e c462 ea3d 3e84 7ebd
00000050: c3ce bd3d c017 0dbd 805c c23d d692 81bd
00000060: 55aa c43d f39f 9c3d e2d7 863e fbad 7abe
00000070: d93d 1bbe cec6 0fbe cd96 2a3e c9a8 a8bd
00000080: 7e21 793e 1ee8 21be eff2 103e 0c9e a7be
00000090: 0e97 503e 377b e03d 9c13 87be e015 6abe
000000a0: 4323 28bd 6374 58be ad00 303c cfcb 98be
000000b0: c128 c93d e128 b63e a0f2 273e 81e8 833b
000000c0: aa14 b1bc fc96 aa3c 229a abbd 12ca 70be
000000d0: be6c 94bd e04a 06be 54d0 01be 34be 9abe
000000e0: 9a8b 9b3e b7a2 5bbe 8902 d8ba 16f5 943e
000000f0: 60ca 4f3c a8a0 febd cb0c 633e 8461 7dbe

enc_layers.0.poly.conv_4.bias f4 [8]
-0.17847995 0.2403565 0.11597105 0.037619792 0.11815516 0.25185233 0.19444384 0.035134252
00000000: 73c3 36be 0420 763e 3b82 ed3d 3617 1a3d
00000010: 55fb f13d caf2 803e 491c 473e efe8 0f3d

enc_layers.1.I_st f4 [1, 1, 1, 8]
-0.36429077 -0.5066978 -0.4997492 -0.4758788 -0.6475903 -0.84451044 -0.10656951 0.75859535
00000000: 5284 babe f2b6 01bf 21df ffbe 63a6 f3be
00000010: 7ac8 25bf d631 58bf 1e41 dabd 4e33 423f

enc_layers.1.E_st f4 [96, 1, 1, 8]
0.29672414 0.0870188 -0.34882826 -0.32941377 -0.28756827 -0.25181547 -0.11744531 0.30474317
0.18600748 0.068301685 -0.019127969 -0.23046993 -0.1403617 -0.046444003 -0.029859453 -0.026988272
-0.025772244 -0.07072063 -0.20021403 -0.25656778 -0.17642982 0.082844116 0.2817434 0.06862173
0.002321499 -0.085293785 -0.23633473 -0.3936062 -0.34469715 -0.089890935 0.16204107 0.3486613
0.0073210583 0.0057399413 -0.05763128 -0.074626766 -0.09153554 0.0043816683 0.060929317 0.0298511
0.011657297 -0.031422306 -0.08087889 -0.0438408 -0.099898845 -0.017219476 0.10395722 0.046961743
-0.12802288 -0.057933744 0.024184443 -0.0066566155 0.010623335 0.05627604 0.06774775 0.120897226
0.15426232 0.092556946 0.014561551 -0.047234315 -0.09940504 -0.15644301 -0.1281743 -0.0033030433
-0.036432747 -0.017066924 0.073563986 0.17566238 0.15893015 0.08579958 0.017434057 -0.18037519
0.21719614 0.1329315 0.027543712 -0.16785188 -0.24905922 -0.16404131 -0.08819683 -0.06543366
0.004716972 0.07663144 -0.06784594 -0.018586192 0.03602588 0.005027621 -0.072030514 0.025195993
0.19475265 0.16840447 0.11928329 0.072998874 -0.091631345 -0.15381014 -0.12896602 -0.21347596
0.110447526 0.14686857 0.14764273 0.019913858 0.0011976914 -0.0347983 -0.18320845 -0.16360658
0.18151642 0.08383787 -0.0258711 -0.11497001 -0.16690095 -0.14945278 -0.08077778 0.011611417
-0.26721352 -0.100167856 0.04008369 0.16998883 0.33576447 0.21369816 0.107544236 -0.17653579
-0.12133665 -0.08154414 0.14852467 0.26743743 0.18659113 0.04510834 0.029974557 -0.14939964
0.12562782 -0.119006276 -0.0456741 0.036901996 0.06475765 -0.015816664 -0.0127264755 -0.050806683
-0.057202954 0.013993596 -0.022694582 0.07182361 0.23198913 0.13049702 -0.008763135 -0.122514315
-0.06781584 -0.22819644 0.0037142318 -0.012545169 -0.039558455 0.092707805 0.1019329 0.16600731
0.08912057 0.09903192 0.10810977 -0.044448685 0.0889022 0.034603927 -0.08668654 -0.14878996
0.117543295 0.01521238 -0.07491337 -0.08265573 -0.102280684 -0.27517477 -0.0972739 0.14429678
-0.17127493 -0.17898697 -0.15011069 -0.14506903 -0.1010355 0.08588807 0.25026405 0.19535285
-0.1515594 -0.11103057 -0.08661663 -0.009145233 0.101152755 0.1480867 0.044678036 0.13348795
-0.0027295677 -0.044763442 0.058351368 0.15107746 0.11345907 -0.06517999 -0.25821725 0.056610752
-0.06817989 -0.07956747 -0.10595538 -0.038949396 0.050821736 0.067922786 0.09911236 0.061490636
-0.057447698 -0.119284466 -0.1824799 -0.21893106 -0.03789625 0.18673839 0.16606498 0.119762614
0.0098356325 -0.054680705 -0.1263365 -0.16656943 -0.08197518 0.046376705 0.14658464 0.056040466
-0.13043989 -0.1558722 -0.1553909 -0.15335019 -0.007141368 0.11418853 0.13300928 0.20354451
0.038411923 -0.048651613 -0.011308917 0.0004540779 0.0421782 -0.0536746 0.047823187 -0.016402917
0.07685629 -0.034046873 -0.12903543 -0.19752607 -0.17891534 -0.014454398 0.081661 0.15050611
0.06383316 0.051731467 0.05086399 -0.046076685 -0.07622337 -0.06433805 -0.0020362576 -0.037330784
0.1271624 0.07862922 -0.0034805434 -0.07919694 -0.11958722 -0.025593644 -0.052186802 -0.03971329
00000000: 3aec 973e ea36 b23d 9e99 b2be eca8 a8be
00000010: 263c 93be f5ed 80be 2b87 f0bd 4c07 9c3e
00000020: bf78 3e3e c1e1 8b3d 42b2 9cbc 4f00 6cbe
00000030: faba 0fbe 113c 3ebd d09b f4bc 8216 ddbc
00000040: 5020 d3bc fad5 90bd e804 4dbe da5c 83be
00000050: 05aa 34be 2daa a93d ac40 903e 8d89 8c3d
00000060: 4a24 183b 82ae aebd bb01 72be c086 c9be
00000070: 257c b0be bd18 b8bd 18ee 253e bc83 b23e
00000080: 7de5 ef3b 1e16 bc3b c70e 6cbd ebd5 98bd
00000090: fc76 bbbd 1994 8f3b 0591 793d 4b8a f43c
000000a0: 3ffe 3e3c adb4 00bd d5a3 a5bd 6992 33bd
000000b0: c497 ccbd dc0f 8dbc 86e7 d43d f55a 403d
000000c0: 6e18 03be ef4b 6dbd 741e c63c bd1f dabb
000000d0: 7f0d 2e3c b481 663d 55bf 8a3d f798 f73d
000000e0: f1f6 1d3e 7f8e bd3d 9293 6e3c c578 41bd
000000f0: df94 cbbd 9932 20be 2040 03be df77 58bb
00000100: 813a 15bd efcf 8bbc b7a8 963d d7e0 333e
00000110: 96be 223e b1b7 af3d ded1 8e3c 46b4 38be
00000120: aa68 5e3e 321f 083e 5aa3 e13c 5de1 2bbe
00000130: 6109 7fbe 72fa 27be 8aa0 b4bd 1502 86bd
00000140: d490 9a3b f2f0 9c3d d0f2 8abd 1242 98bc
00000150: e08f 133d bebe a43b bc84 93bd d467 ce3c
00000160: 3d6d 473e 3972 2c3e cc4a f43d 6f80 953d
00000170: 37a9 bbbd 6880 1dbe ab0f 04be 7199 5abe
00000180: 5032 e23d b764 163e a82f 173e 6322 a33c
00000190: dbfb 9c3a aa88 0ebd ff9a 3bbe 7c88 27be
000001a0: 71df 393e 30b3 ab3d a1ef d3bc 6675 ebbd
000001b0: 15e8 2abe 260a 19be d26e a5bd d03d 3e3c
000001c0: 36d0 88be ce24 cdbd cc2e 243d 8d11 2e3e
000001d0: 52e9 ab3e b1d3 5a3e 2740 dc3d ccc5 34be
000001e0: 597f f8bd 9d00 a7bd da16 183e 8fed 883e
000001f0: bf11 3f3e 86c3 383d 348d f53c 38fc 18be
00000200: 94a4 003e 90b9 f3bd c414 3bbd 8c26 173d
00000210: a99f 843d f391 81bc b582 50bc ab1a 50bd
00000220: a54d 6abd 6545 653c fde9 b9bc 4218 933d
00000230: 8f8e 6d3e 03a1 053e 4193 0fbc c9e8 fabd
00000240: 08e3 8abd 54ac 69be 786a 733b 418a 4dbc
00000250: 0c08 22bd 97dd bd3d 32c2 d03d d2fd 293e
00000260: d884 b63d 3fd1 ca3d a868 dd3d d30f 36bd
00000270: 5b12 b63d d9bc 0d3d b688 b1bd 655c 18be
00000280: 8aba f03d 593d 793c 2e6c 99bd 6847 a9bd
00000290: 8978 d1bd b5e3 8cbe 8a37 c7bd 89c2 133e
000002a0: b262 2fbe 5c48 37be 9eb6 19be fa8c 14be
000002b0: b3eb cebd 16e6 af3d 9c22 803e 940a 483e
000002c0: 6332 1bbe ff63 e3bd 0f64 b1bd e3d5 15bc
000002d0: 2d29 cf3d 0aa4 173e 5100 373d 11b1 083e
000002e0: 8ce2 32bb df59 37bd d801 6f3d 0db4 1a3e
000002f0: 3b5d e83d 167d 85bd 0d35 84be ade0 673d
00000300: e6a1 8bbd 45f4 a2bd 22ff d8bd 6789 1fbd
00000310: 742a 503d 1a1b 8b3d 6cfb ca3d 9bdd 7b3d
00000320: 474e 6bbd 6a4b f4bd 03dc 3abe 772f 60be
00000330: 1939 1bbd 5938 3f3e f00c 2a3e 1a46 f53d
00000340: a225 213c e0f8 5fbd 5b5e 01be 2d91 2abe
00000350: 9ae2 a7bd 80f5 3d3d 491a 163e b08a 653d
00000360: 0992 05be f69c 1fbe cb1e 1fbe d507 1dbe
00000370: 2302 eabb addb e93d 9633 083e f96d 503e
00000380: d255 1d3d ea46 47bd 0949 39bc 4e11 ee39
00000390: 0cc3 2c3d e6d9 5bbd 3fe2 433d 695f 86bc
000003a0: d566 9d3d bc74 0bbd dd21 04be 4644 4abe
000003b0: 9535 37be 24d2 6cbc e23d a73d 461e 1a3e
000003c0: f6ba 823d 60e4 533d c256 503d e8ba 3cbd
000003d0: 001b 9cbd abc3 83bd bc72 05bb 2ae8 18bd
000003e0: dc36 023e 5b08 a13d d419 64bb 0132 a2bd
000003f0: 25ea f4bd c3a9 d1bc d4c1 55bd 67aa 22bd
