checkpoints/long_term_forecast_ECL_168_96_SSCNN_custom_ftM_sl168_ll48_pl96_dm8_el4_lt1_se1_st1_si1_lta1_sea1_sta1_0/checkpoint.pth (torch, 106759 bytes, 72 tensors)

enc_layers.0.I_st f4 [1, 1, 1, 8]
-0.030945862 -0.06692303 -0.08153165 -0.13132253 -0.19391814 -0.2203127 -0.017172977 0.16554657
00000000: 2d82 fdbc f10e 89bd 11fa a6bd 6a79 06be
00000010: 7a92 46be a799 61be 58ae 8cbc 0a85 293e

enc_layers.0.E_st f4 [96, 1, 1, 8]
0.038540736 -0.0386078 -0.06864912 -0.08486833 -0.021989876 0.1167497 0.086818874 -0.040050138
0.2048587 0.26142734 0.30599377 0.25046548 0.05490676 -0.20637913 -0.29666895 -0.31096452
0.09319374 0.09307197 0.09344798 0.04027887 -0.04981176 -0.05547441 -0.09478683 -0.12268568
-0.09170347 -0.08628911 -0.0783714 -0.058919124 0.039571214 0.06055673 0.07363825 0.09110126
-0.07042542 -0.04670455 -0.022444284 0.0059111924 0.04750746 0.04372171 0.025100993 0.050034255
0.08509904 0.060048096 0.033444464 -0.006180603 -0.056423306 -0.05442004 -0.038567767 -0.062246986
0.03542555 0.011186755 -0.025498683 -0.03338831 -0.028083703 -0.030012261 -0.015610325 0.0042320956
-0.08709895 -0.053519223 -0.014422335 0.029174406 0.09192605 0.067638256 0.033493612 0.03372689
0.06195067 0.024032814 -0.06082598 -0.1406773 -0.1026043 -0.055686526 0.005121386 0.039479606
-0.029377904 -0.036606595 -0.042119488 -0.049029175 -0.041592043 0.014763222 0.023937436 0.064560115
-0.052318387 -0.06727628 -0.07383517 -0.0721668 0.0064301384 0.04965891 0.061329134 0.07922043
0.05986166 0.020568231 -0.0011257601 -0.027240695 -0.027394513 0.0015146161 -0.014958069 -0.024355786
-0.039617296 -0.017505527 0.020620804 0.10439669 0.035504937 0.036722317 0.016968325 -0.03888189
-0.055092696 -0.027007084 0.018331356 0.0273494 0.044042315 0.031325076 0.015301664 0.012484365
-0.02418452 -0.05764133 -0.07889264 -0.03680409 0.015820527 0.029396843 0.049416177 0.08235206
0.029374208 0.017895877 -0.014427623 -0.054276053 -0.042327035 -0.011738239 -0.028846594 0.020901196
0.022107761 0.037462424 0.0088369055 -0.07470226 -0.039525323 -0.010613013 -0.025318919 -0.013597178
-0.05679003 -0.05088853 -0.030589012 -0.014578322 0.032283876 0.020618258 0.046165083 0.075949505
-0.057362776 -0.080263555 -0.08769385 0.07244169 0.10674908 0.098873146 0.061985746 0.012311532
-0.05188904 -0.072673395 -0.069489956 -0.03811735 -0.008273695 0.08344874 0.059422255 0.051181927
-0.046604738 -0.08860209 -0.109763764 -0.12390922 -0.1421095 0.060957443 0.11133023 0.10747652
-0.069233045 -0.08754256 -0.10712608 -0.03654186 0.034683034 0.092911065 0.11975378 0.08895806
0.01887126 -0.017054297 -0.049860854 -0.066371985 0.004000025 0.08373222 0.044922426 -0.032901227
0.08956429 0.080759384 0.07029895 0.050729427 -0.0639805 -0.07799443 -0.081641406 -0.08825963
-0.060100228 -0.038580243 -0.022058224 -0.029151604 -0.008657081 0.05483815 0.050867256 0.045413062
0.08457446 0.05162403 0.023083195 0.0029838225 -0.013934658 -0.02835265 -0.04611227 -0.0725973
0.045527738 0.051444843 0.06070828 0.068388455 0.009725529 -0.051732417 -0.06016991 -0.060013253
0.03241269 0.010902458 -0.019994237 -0.0342091 -0.0018688479 0.029271912 -0.003466617 -0.02247522
0.01491181 0.0011590907 -0.0011764329 -0.0031011952 -0.0034566664 -0.02471428 -0.009687819 0.008032706
-0.092840225 -0.10810156 -0.10045095 -0.021565251 0.053562883 0.1235968 0.11861318 0.098975115
0.047613144 0.035093676 0.018422736 0.01594881 -0.014855825 -0.041308444 -0.04336652 -0.02873846
-0.024775608 -0.016894432 -0.00332111 -0.00084964756 0.006543158 0.009296987 0.018473145 0.022532439
00000000: e4dc 1d3d 3623 1ebd e997 8cbd 72cf adbd
00000010: 1d24 b4bc 771a ef3d 18ce b13d 9d0b 24bd
00000020: 7bc6 513e ced9 853e 37ab 9c3e 033d 803e
00000030: e9e5 603d 0d55 53be fee4 97be be36 9fbe
00000040: 5cdc be3d 849c be3d a861 bf3d 75fb 243d
00000050: 6b07 4cbd 2339 63bd 991f c2bd a142 fbbd
00000060: 07cf bbbd 58b8 b0bd 2f81 a0bd 2e55 71bd
00000070: 6d15 223d 550a 783d a7cf 963d 4c93 ba3d
00000080: 343b 90bd 454d 3fbd 13dd b7bc adb2 c13b
00000090: 2f97 423d 8915 333d 99a0 cd3c b8f0 4c3d
000000a0: 6848 ae3d fef4 753d 10fd 083d a886 cabb
000000b0: 201c 67bd 8ce7 5ebd 3cf9 1dbd b2f6 7ebd
000000c0: 621a 113d a748 373c 9de2 d0bc 2ec2 08bd
000000d0: cb0f e6bc 46dc f5bc 73c2 7fbc 64ad 8a3b
000000e0: ef60 b2bd f936 5bbd a84b 6cbc 2aff ee3c
000000f0: ba43 bc3d ed85 8a3d 9930 093d 3525 0a3d
00000100: fcbf 7d3d 77e0 c43c aa24 79bd b60d 10be
00000110: 3422 d2bd 8e17 64bd 4dd1 a73b 5eb5 213d
00000120: eea9 f0bc ccf0 15bd 7c85 2cbd d1d2 48bd
00000130: 6b5c 2abd 71e1 713c 7118 c43c 1838 843d
00000140: ce4b 56bd 25c8 89bd e536 97bd 30cc 93bd
00000150: e9b3 d23b 2467 4b3d 4234 7b3d 523e a23d
00000160: 8031 753d b57e a83c 3e8e 93ba e127 dfbc
00000170: 756a e0bc 1586 c63a b012 75bc c985 c7bc
00000180: bf45 22bd c067 8fbc f6ec a83c efcd d53d
00000190: a06d 113d 246a 163d 2801 8b3c 9e42 1fbd
000001a0: e1a8 61bd f63d ddbc a42b 963c d90b e03c
000001b0: b765 343d b94e 003d d5b3 7a3c 398b 4c3c
000001c0: 9d1e c6bc 5119 6cbd 7792 a1bd e3bf 16bd
000001d0: 0d9a 813c a6d1 f03c 9e68 4a3d 32a8 a83d
000001e0: 2ea2 f03c 609a 923c d661 6cbc 9150 5ebd
000001f0: 1d5f 2dbd be51 40bc b14f ecbc fc38 ab3c
00000200: 561b b53c 3372 193d abc8 103c 80fd 98bd
00000210: 4ee5 21bd 34e2 2dbc 9f69 cfbc b3c6 5ebc
00000220: aa9c 68bd 7e70 50bd cf95 fabc ead9 6ebc
00000230: 193c 043d 9fe7 a83c 9917 3d3d 6a8b 9b3d
00000240: 3bf5 6abd 3861 a4bd d598 b3bd 4f5c 943d
00000250: 439f da3d 017e ca3d c4e4 7d3d 4fb6 493c
00000260: 9a89 54bd cad5 94bd c050 8ebd f020 1cbd
00000270: 648e 07bc 2ce7 aa3d c064 733d 24a4 513d
00000280: 9ce4 3ebd 0375 b5bd d3cb e0bd 1ec4 fdbd
00000290: 2785 11be 83ae 793d 1b01 e43d a61c dc3d
000002a0: 0eca 8dbd 8449 b3bd eb64 dbbd ebac 15bd
000002b0: cc0f 0e3d 2848 be3d 7841 f53d a52f b63d
000002c0: e797 9a3c 74b5 8bbc e53a 4cbd 09ee 87bd
000002d0: a412 833b cc7b ab3d 9400 383d 70c3 06bd
000002e0: 7c6d b73d 2d65 a53d e5f8 8f3d a9c9 4f3d
000002f0: 3508 83bd 8bbb 9fbd 9c33 a7bd 77c1 b4bd
00000300: a82b 76bd 5106 1ebd 73b3 b4bc 58cf eebc
00000310: 6ed6 0dbc f89d 603d 2f5a 503d 0c03 3a3d
00000320: 6035 ad3d b873 533d f818 bd3c 3c8c 433b
00000330: 314e 64bc d143 e8bc 38e0 3cbd e5ad 94bd
00000340: 4b7b 3a3d d4b7 523d 3fa9 783d 3f0f 8c3d
00000350: d357 1f3c 5fe5 53bd b974 76bd 75d0 75bd
00000360: 2bc3 043d 39a0 323c f4ca a3bc d71e 0cbd
00000370: 21f4 f4ba a6cb ef3c 2f30 63bb f41d b8bc
00000380: aa50 743c a1ec 973a 8a32 9aba 6c3d 4bbb
00000390: 3d89 62bb 9a75 cabc a8b9 1ebc 9c9b 033c
000003a0: 0423 bebd 5a64 ddbd 3ab9 cdbd 9ca9 b0bc
000003b0: c164 5b3d 5220 fd3d 78eb f23d 77b3 ca3d
000003c0: 0006 433d 63be 0f3d 47eb 963c 14a7 823c
000003d0: d965 73bc 0b33 29bd 18a1 31bd eb6c ebbc
000003e0: 37f6 cabc 3166 8abc fba6 59bb e2ba 5eba
000003f0: fd67 d63b 6452 183c fe54 973c f395 b83c

enc_layers.0.E_si f4 [96, 1, 1, 8]
0.062167477 -0.01925863 -0.14447086 -0.22199771 -0.19305149 -0.027068207 0.108419634 0.15794845
-0.11312379 -0.039794277 0.08401585 0.17769788 0.14751412 0.062591724 -0.010501085 -0.086047135
0.00975148 -0.0073490017 -0.024729162 -0.06017109 -0.06672742 -0.01894696 0.014851429 0.062598884
0.01944334 0.0042203725 -0.0041432856 0.022606466 0.036053393 0.033143874 0.004642433 -0.057232913
-0.095489256 -0.07085558 -0.022083512 0.057872437 0.11115735 0.059157863 0.040847678 0.050225213
-0.11935575 -0.032738443 0.029425923 0.06679638 0.10135573 0.12332543 0.029336732 -0.05387744
0.036107194 -0.012868604 -0.07018345 -0.05960091 -0.060336888 -0.019946994 0.012759064 0.071567886
0.02263971 0.039193705 0.056928486 0.049584415 0.026111677 -0.021400454 -0.046788946 -0.0685472
0.09708261 0.080231436 0.05058382 -0.032275215 -0.091583624 -0.06940991 -0.06329454 -0.08082353
-0.03296301 -0.051048245 -0.06583619 -0.07661145 -0.059636172 0.00817316 0.061197452 0.07718849
-0.029138068 -0.04232375 -0.027507741 0.016590564 0.04857404 0.04270474 0.031141035 0.010441433
0.12561803 0.10702471 0.06202595 0.0364353 -0.03161652 -0.08503958 -0.08302251 -0.11774105
0.028871961 -0.009287377 -0.03216472 -0.0034470388 0.0047996067 0.011062191 0.008179042 -0.00089327514
-0.093081735 -0.06596116 -0.027033612 0.024550533 0.040440742 0.06982552 0.08407963 0.07110545
0.0389536 0.02829316 0.044678126 0.064363405 0.026577322 -0.05324639 -0.055059478 -0.06188585
0.028877215 0.019400029 0.063195094 0.07762666 -0.0057127136 -0.027589308 -0.020112023 -0.065329246
-0.014825909 -0.026213612 -0.028643154 -0.047083795 -0.0034057868 0.014771869 0.029670209 0.028148387
0.024049819 0.082576 0.09182794 -0.0027074842 -0.07488688 -0.08051746 -0.0686459 -0.021309879
-0.017354842 -0.07575505 -0.11560271 -0.18162757 -0.1377675 0.07336733 0.11267005 0.10359479
-0.14602558 -0.19906905 -0.16482349 -0.042143643 0.0073552537 0.117924094 0.17217468 0.16684422
-0.025046831 -0.05958256 -0.06611454 -0.030858884 0.032461457 0.048013844 0.030992972 0.039004665
0.13428442 0.18027826 0.21313316 0.06763701 -0.070663676 -0.16824897 -0.22636437 -0.07591331
-0.043292016 -0.09817733 -0.11508572 -0.06571736 0.041153416 0.1496509 0.1148005 0.0014891108
-0.07132685 -0.09535886 -0.12453784 -0.15506518 -0.0741134 0.07084717 0.11875313 0.15165494
-0.08274653 -0.09820681 -0.12332108 -0.1436551 -0.1243978 0.035490863 0.12933514 0.16965683
0.12725317 0.061070267 -0.004214196 -0.073047586 -0.09762084 -0.03673476 -0.036940634 -0.06627089
0.05648053 0.023962429 -0.027164873 -0.101542205 -0.106260136 -0.032270323 0.00011354224 0.04322371
-0.06459046 -0.030808765 0.008924772 0.066429116 0.08165344 0.027136711 0.014045689 0.012432471
0.000775779 0.007994888 -0.0026037456 -0.031636797 -0.061540406 -0.021695182 0.0067040473 0.023838766
-0.12442209 -0.10810809 -0.015983641 0.06726159 0.099258535 0.09750425 0.09475814 0.066175565
0.009696521 -0.0070478083 -0.028968789 -0.036089346 -0.034347814 0.006293546 0.026233038 0.02616738
-0.010055882 0.016799752 0.04548187 0.034538873 0.0011069195 -0.025247667 -0.02306035 -0.0020949491
00000000: 53a3 7e3d 46c4 9dbc 2bf0 13be 5e53 63be
00000010: 4aaf 45be 25be ddbc 1d0b de3d 3dbd 213e
00000020: 72ad e7bd 53ff 22bd 8110 ac3d 6ff6 353e
00000030: f10d 173e 1730 803d be0c 2cbc 7b39 b0bd
00000040: acc4 1f3c e5cf f0bb d094 cabc f675 76bd
00000050: 63a8 88bd a836 9bbc 6853 733c d833 803d
00000060: a447 9f3c 0d4b 8a3b 66c4 87bb 3231 b93c
00000070: b9ac 133d dfc1 073d 8d1f 983b 0f6d 6abd
00000080: df8f c3bd bb1c 91bd 7be8 b4bc a60b 6d3d
00000090: 77a6 e33d 844f 723d e54f 273d f4b8 4d3d
000000a0: ca70 f4bd bf18 06bd a20e f13c 8acc 883d
000000b0: 9893 cf3d 0b92 fc3d 9653 f03c 97ae 5cbd
000000c0: 23e5 133d d6d6 52bc 57bc 8fbd 1520 74bd
000000d0: d023 77bd e167 a3bc 650b 513c 2f92 923d
000000e0: ea76 b93c 9489 203d d82d 693d 0719 4b3d
000000f0: 28e8 d53c 0150 afbc c4a5 3fbd 7962 8cbd
00000100: 3fd3 c63d 6150 a43d fb30 4f3d 0433 04bd
00000110: 3290 bbbd c826 8ebd 91a0 81bd cf86 a5bd
00000120: 3904 07bd f717 51bd 20d5 86bd 77e6 9cbd
00000130: 0f45 74bd b8e8 053c 2eaa 7a3d 0015 9e3d
00000140: f5b2 eebc ab5b 2dbd ea57 e1bc efe8 873c
00000150: 93f5 463d 2aeb 2e3d 7c1b ff3c 8b12 2b3c
00000160: 03a2 003e c52f db3d ec0e 7e3d 2e3d 153d
00000170: 5380 01bd 3b29 aebd b507 aabd 3822 f1bd
00000180: e484 ec3c 152a 18bc 27bf 03bd b7e7 61bb
00000190: 0546 9d3b 313e 353c 6301 063c ae2a 6aba
000001a0: a3a1 bebd a516 87bd 9875 ddbc 331e c93c
000001b0: 31a5 253d af00 8f3d f131 ac3d bc9f 913d
000001c0: cf8d 1f3d 0fc7 e73c 6900 373d f6d0 833d
000001d0: afb8 d93c e318 5abd 0c86 61bd 047c 7dbd
000001e0: e98f ec3c cfec 9e3c 6e6c 813d bafa 9e3d
000001f0: b731 bbbb f902 e2bc f8c1 a4bc 57cb 85bd
00000200: 5fe8 72bc eebd d6bc 0ca5 eabc f0da 40bd
00000210: 9f33 5fbb b605 723c f00e f33c 7297 e63c
00000220: 2004 c53c 9b1d a93d 4910 bc3d 0c70 31bb
00000230: 4b5e 99bd 57e6 a4bd 3996 8cbd 0e92 aebc
00000240: be2b 8ebc 7725 9bbd 1dc1 ecbd 94fc 39be
00000250: ec12 0dbe 9c41 963d 8ebf e63d 8129 d43d
00000260: bb87 15be c2d8 4bbe 7dc7 28be d09e 2cbd
00000270: 5704 f13b 3082 f13d 8f4e 303e 36d9 2a3e
00000280: 032f cdbc d80c 74bd 0f67 87bd c5cb fcbc
00000290: 4ef6 043d 2aaa 443d f9e4 fd3c 5bc3 1f3d
000002a0: db81 093e dd9a 383e 943f 5a3e 4685 8a3d
000002b0: 1eb8 90bd 7549 2cbe 10cc 67be 7078 9bbd
000002c0: f852 31bd 3211 c9bd 10b2 ebbd d396 86bd
000002d0: 7c90 283d 163e 193e 861c eb3d 442e c33a
000002e0: d013 92bd 824b c3bd b20d ffbd 68c9 1ebe
000002f0: c4c8 97bd 5218 913d d734 f33d 6f4b 1b3e
00000300: 0377 a9bd a720 c9bd c38f fcbd 531a 13be
00000310: 46c4 febd de5e 113d 6e70 043e 85ba 2d3e
00000320: a84e 023e d124 7a3d 3d17 8abb f999 95bd
00000330: 6fed c7bd 3077 16bd 104f 17bd 08b9 87bd
00000340: 2158 673d db4c c43c de88 debc 5cf5 cfbd
00000350: ea9e d9bd e32d 04bd 871d ee38 580b 313d
00000360: 0148 84bd aa62 fcbc 3539 123c fd0b 883d
00000370: eb39 a73d cf4d de3c e41f 663c 90b1 4b3c
00000380: a65d 4b3a fefc 023c 9aa3 2abb 9695 01bd
00000390: cb11 7cbd 18ba b1bc a0ad db3b 8449 c33c
000003a0: 02d1 febd c667 ddbd 20f0 82bc 72c0 893d
000003b0: 0f48 cb3d 4fb0 c73d 8e10 c23d 0e87 873d
000003c0: 28de 1e3c 4df1 e6bb f44f edbc 6cd2 13bd
000003d0: 4bb0 0cbd 173a ce3b abe6 d63c f95c d63c
000003e0: 6dc1 24bc a29f 893c 334b 3a3d a278 0d3d
000003f0: 0e16 913a 32d4 cebc 0fe9 bcbc 6a4b 09bb

enc_layers.0.I_se f4 [7, 7, 1, 1]
0.02138217 -0.06781032 -0.2845639 0.04770676 -0.05084756 -0.09655666 0.3098133 0.07781214
0.09403554 -0.039610658 -0.12701528 -0.067830086 8.780109e-05 0.12236322 0.025661875 0.13989021
0.1147113 -0.00991454 -0.10814572 -0.0731685 -0.06112067 0.06659402 0.010155174 0.22405376
0.08793301 -0.06857629 -0.15624166 -0.11411717 0.31179065 0.18828821 0.19979212 0.27360353
-0.2556781 -0.312422 -0.25955936 0.296731 0.22875895 0.24389046 0.12072262 -0.23755512
-0.19230361 -0.22874945 -0.07743321 0.0152167855 -0.07536328 -0.00090307783 -0.14705697 -0.0449874
0.12915713
00000000: a929 af3c 23e0 8abd 5cb2 91be 2a68 433d
00000010: 8845 50bd 80bf c5bd d99f 9e3e f95b 9f3d
00000020: b595 c03d c93e 22bd 4b10 02be 80ea 8abd
00000030: da21 b838 9199 fa3d da38 d23c 613f 0f3e
00000040: c2ed ea3d 9870 22bc 817b ddbd 5ed9 95bd
00000050: ab59 7abd 7262 883d e361 263c 596e 653e
00000060: 3916 b43d ba71 8cbd d0fd 1fbe 43b6 e9bd
00000070: 06a3 9f3e a0ce 403e 4e96 4c3e c315 8c3e
00000080: 3de8 82be c7f5 9fbe f7e4 84be 20ed 973e
00000090: c93f 6a3e 6cbe 793e 6c3d f73d a641 73be
000000a0: 3deb 44be 4c3d 6abe 4e95 9ebd d34f 793c
000000b0: 1058 9abd 87bc 6cba 1a96 16be b544 38bd
000000c0: c441 043e

enc_layers.0.E_se f4 [5, 7, 1, 1]
-0.17801854 0.17651074 0.1873095 0.14667226 -0.07620035 -0.02858483 -0.13526481 0.1835286
-0.115308575 0.10501538 0.12845078 -0.085234284 -0.12349124 -0.086955756 0.19016817 0.13385819
-0.04926365 0.06592595 -0.049439885 -0.09872034 -0.19025005 0.17645912 0.23941615 0.14707367
-0.2960052 -0.08070945 -0.029910613 -0.054863688 0.0 0.0 0.0 0.0
0.0 0.0 0.0
00000000: 7e4a 36be 3bbf 343e 10ce 3f3e 4131 163e
00000010: ee0e 9cbd bc2a eabc dc82 0abe ecee 3b3e
00000020: e726 ecbd 4e12 d73d 9a88 033e 508f aebd
00000030: fae8 fcbd dc15 b2bd 72bb 423e 1f12 093e
00000040: aec8 49bd 2f04 873d 7a81 4abd e42d cabd
00000050: e9d0 42be b3b1 343e 8229 753e 7b9a 163e
00000060: fe8d 97be ff4a a5bd 1a07 f5bc bfb8 60bd
00000070: 0000 0000 0000 0000 0000 0000 0000 0000
00000080: 0000 0000 0000 0000 0000 0000

enc_layers.0.skip_conv.weight f4 [8, 8, 1, 1]
-0.18798225 0.285038 0.030989347 -0.2922335 0.26874897 -0.07340494 -0.1166933 -0.18498313
0.27211675 0.11945809 0.08188437 -0.32890913 -0.049161885 0.190645 0.01862608 -0.06571159
-0.01908784 0.1429643 -0.22876246 0.0627776 -0.2557589 -0.13763283 -0.27596852 0.18818107
0.0805483 0.33033943 -0.25864863 0.15522476 -0.3119456 -0.31839156 -0.050914016 0.098384574
-0.24127437 0.13330977 0.06026559 0.3077645 -0.050328407 0.2509751 -0.27668634 0.29011714
0.29371104 0.055053324 -0.15804026 0.3439921 0.092116915 0.052474402 -0.11527035 -0.07329659
0.23004328 0.25490025 0.09637773 0.2922624 -0.072626285 -0.22406061 -0.32145166 0.31888545
0.010337634 -0.2522031 -0.26762176 0.23286095 0.22824815 -0.20317358 0.19329852 -0.2175941
00000000: 6b7e 40be 80f0 913e 5fdd fd3c a19f 95be
00000010: 7799 893e 5455 96bd e6fc eebd 386c 3dbe
00000020: e352 8b3e 71a6 f43d feb2 a73d c766 a8be
00000030: f95d 49bd 7138 433e b995 983c cc93 86bd
00000040: 1a5e 9cbc 3c65 123e b540 6abe 8b91 803d
00000050: d5f2 82be 9fef 0cbe bf4b 8dbe 8ab2 403e
00000060: 82f6 a43d 4022 a93e 986d 84be 3df3 1e3e
00000070: 55b7 9fbe 3804 a3be 378b 50bd da7d c93d
00000080: a110 77be 5b82 083e 0dd9 763d 4f93 9d3e
00000090: 2925 4ebd cf7f 803e d5a9 8dbe 3c8a 943e
000000a0: 4b61 963e 987f 613d 4ed5 21be bc1f b03e
000000b0: cba7 bc3d 66ef 563d dc12 ecbd 861c 96bd
000000c0: 7790 6b3e 4982 823e b061 c53d 6ba3 953e
000000d0: 17bd 94bd 2570 65be 5095 a4be f444 a33e
000000e0: 2e5f 293c c420 81be b805 89be 1a73 6e3e
000000f0: e2b9 693e bc0c 50be 0cf0 453e fdd0 5ebe

enc_layers.0.skip_conv.bias f4 [8]
0.28037077 -0.11233598 0.23206282 -0.26106447 0.10544874 0.0734242 -0.2342503 -0.02131427
00000000: c28c 8f3e 6810 e6bd e0a1 6d3e 3eaa 85be
00000010: 82f5 d73d 6d5f 963d 50df 6fbe 449b aebc

enc_layers.0.residual_conv.weight f4 [8, 8, 1, 1]
-0.18232735 -0.16266347 0.27459905 -0.1699419 -0.1511889 -0.102617 0.19082299 0.14351308
0.2149996 -0.26726478 0.24633889 0.31255376 0.2692104 -0.17421208 0.20321926 -0.25493357
-0.4073921 0.009240002 -0.17851895 0.27637324 -0.24152344 0.087812826 0.10188521 -0.04587185
-0.08669752 0.2536863 0.1646697 -0.093258634 0.28124335 0.05599226 -0.36586446 -0.31137514
-0.35437775 0.34239578 -0.25147346 0.298804 0.0012661977 -0.3079844 0.24289973 0.11857748
0.35679454 -0.31606054 -0.16580053 -0.1326987 0.17671987 0.328614 0.26596522 0.33530447
0.11058022 0.17261104 0.26148775 0.24880326 0.10463098 0.18840994 0.019826964 0.23724517
-0.061998688 -0.044220597 -0.015578606 0.2548546 0.33888426 0.2812519 -0.14954276 0.3190656
00000000: 05b4 3abe 4191 26be 3f98 8c3e 4005 2ebe
00000010: 43d1 1abe dd28 d2bd 1a67 433e 18f5 123e
00000020: db28 5c3e eed6 88be 4340 7c3e 0c07 a03e
00000030: f2d5 893e a764 32be b618 503e a786 82be
00000040: b395 d0be 6163 173c accd 36be cb80 8d3e
00000050: ec51 77be 36d7 b33d 31a9 d03d 1fe4 3bbd
00000060: 788e b1bd 2ce3 813e 2d9f 283e 62fe bebd
00000070: 21ff 8f3e 2458 653d 9652 bbbe 906c 9fbe
00000080: 0071 b5be 804e af3e 21c1 80be d6fc 983e
00000090: 8bf6 a53a 22b0 9dbe b5ba 783e c0d8 f23d
000000a0: c6ad b63e b0d2 a1be 9dc7 29be 2be2 07be
000000b0: 0ef6 343e 1840 a83e 982c 883e 07ad ab3e
000000c0: e277 e23d f3c0 303e b9e1 853e 48c6 7e3e
000000d0: c448 d63d 89ee 403e 286c a23c 66f0 723e
000000e0: 56f2 7dbd a820 35bd 693d 7fbc 4d7c 823e
000000f0: 3d82 ad3e 4000 903e bd21 19be 915c a33e

enc_layers.0.residual_conv.bias f4 [8]
0.15280859 -0.09482367 -0.03706966 -0.28553963 0.34223318 -0.32627633 -0.3223048 0.04976888
00000000: db79 1c3e ea32 c2bd 5bd6 17bd 4032 92be
00000010: 3039 af3e b10d a7be 2205 a5be 74da 4b3d

enc_layers.0.poly.conv_1.weight f4 [8, 64, 1, 2]
0.02824647 -0.02234555 0.04466077 -0.05550683 0.022581298 -0.07602839 0.052146576 -0.03905911
0.063395955 -0.08576234 -0.012395521 0.00017499251 -0.049625266 0.041468553 0.005952852 -0.03271307
-0.08685363 -0.090553775 -0.07538516 0.062376704 0.049843106 -0.06841282 -0.0074579683 -0.065489344
0.06605436 -0.01397638 -0.06025275 0.08886546 0.03805125 -0.09816657 0.00939923 -0.002484481
0.034139555 -0.06017373 0.0100237345 0.052232634 -0.014470268 0.040312972 0.10976197 0.081311785
0.013720132 -0.08400111 0.052562013 -0.023736024 -0.029944511 -0.037278432 0.016926222 0.04110084
0.044459835 -0.053651113 -0.02740089 -0.13253655 -0.037107658 0.03356121 -0.07603334 -0.056879837
-0.011116396 0.07022222 -0.03708712 -0.0031270655 -0.08525163 0.0065433467 0.030001426 0.0985471
-0.05177912 0.0016573896 -0.046464756 -0.0033082878 0.022035576 -0.040286817 -0.07593139 0.0458528
-0.022552002 0.06405155 0.014684217 0.05482038 0.029359914 -0.008870047 -0.019526284 0.09539515
0.025314527 -0.037944764 -0.07984905 0.0484337 0.09112076 0.050406102 0.04018017 0.04181326
0.08620387 0.10040105 0.08525716 0.024715278 0.04388147 0.0012852859 -0.026183335 -0.07813971
0.04244951 0.034803636 -0.0047478843 -0.062066987 -0.060560606 -0.023949413 0.027546935 0.027776062
0.013322131 0.018608773 0.030367488 0.014743285 0.037034467 -0.022529423 0.024363337 -0.058103994
0.059944637 0.06461669 0.051700387 0.07260337 0.09728789 -0.05190355 -0.061644107 -0.000260992
0.0054701692 0.015562625 -0.020899804 0.06970792 -0.0122307055 -0.083940834 -0.00043539013 0.04646473
0.03804613 -0.027004879 0.014131829 0.055415485 -0.04195478 0.0009367171 -0.06329803 -0.026394771
-0.0035022288 0.04714215 0.039716545 0.056224942 0.087174736 -0.050994292 0.05831688 0.0962127
-0.018941233 0.032325033 0.07733379 0.060030278 -0.03771663 0.03425301 -0.055057347 0.026285483
-0.055073053 0.040972497 0.05190931 0.015357703 -0.06204397 0.026703011 -0.009935869 -0.044610616
0.031196672 0.108593196 0.015420603 0.03568625 -0.07218091 -0.08247522 0.011877814 0.11295949
0.0127046155 0.021103393 -0.07725021 -0.09235272 -0.038892824 -0.0039691897 -0.025763735 0.09347967
0.09836554 0.066838674 -0.01884264 -0.0033877804 0.06007375 -0.03496981 -0.057865772 0.0806214
-0.07163898 -0.06558024 0.057791043 -0.011324067 0.04730662 -0.016661638 -0.012984087 0.11326799
0.007850875 0.112619296 0.046333827 0.046904717 0.020212848 -0.011330283 -0.06472198 -0.0064596655
-0.057128754 -0.01569434 -0.026228731 0.06204028 0.05692549 0.06506665 -0.09752418 -0.022896245
0.08418658 0.009002973 -0.048227765 0.046733335 -0.030825244 0.070329785 -0.0684781 0.051189125
-0.08319852 -0.07465808 -0.027755111 0.049023267 -0.08351298 -0.005867989 -0.07128026 0.031538613
-0.017945543 -0.02543029 0.0012733598 0.037805844 0.036740266 -0.027587906 -0.14482532 -0.062816866
0.0040108734 0.018633118 0.13628642 -0.05486115 -0.061126187 -0.03561077 -0.03864233 -0.008095057
0.032476176 0.10889014 0.020149421 -0.013959848 -0.05772141 -0.09450609 0.12102549 -0.00854654
-0.028763214 -0.05609729 -0.047142614 0.07364118 0.07143641 -0.010311265 0.029182877 -0.0023138793
00000000: 2465 e73c 040e b7bc 36ee 363d 215b 63bd
00000010: 6afc b83c c6b4 9bbd a697 553d 72fc 1fbd
00000020: bdd5 813d 2aa4 afbd 9516 4bbc 327e 3739
00000030: dd43 4bbd eeda 293d 2410 c33b 24fe 05bd
00000040: 51e0 b1bd 4274 b9bd 8963 9abd b77e 7f3d
00000050: 4928 4c3d 051c 8cbd f961 f4bb 471f 86bd
00000060: 8247 873d 30fd 64bc 96cb 76bd 18ff b53d
00000070: a1db 1b3d 8e0b c9bd 3aff 193c add2 22bb
00000080: ebd5 0b3d bb78 76bd 973a 243c e3f1 553d
00000090: b414 6dbc 371f 253d e2ca e03d cb86 a63d
000000a0: 68ca 603c c608 acbd 444b 573d 0d72 c2bc
000000b0: 314e f5bc 45b1 18bd dca8 8a3c 5b59 283d
000000c0: 841b 363d 45c1 5bbd d577 e0bc a9b7 07be
000000d0: 33fe 17bd 7b77 093d 5eb7 9bbd d5fa 68bd
000000e0: 8b21 36bc abd0 8f3d aae8 17bd 74ef 4cbb
000000f0: 6898 aebd 9269 d63b 8dc5 f53c 10d3 c93d
00000100: 5816 54bd c43c d93a d451 3ebd dccf 58bb
00000110: f483 b43c ca03 25bd eb81 9bbd 25d0 3b3d
00000120: fabe b8bc 762d 833d 1296 703c 568b 603d
00000130: 3484 f03c ac53 11bc 96f5 9fbc 885e c33d
00000140: 6960 cf3c f86b 1bbd e687 a3bd 6a62 463d
00000150: 859d ba3d a176 4e3d f693 243d 6244 2b3d
00000160: a88b b03d 119f cd3d 4e9b ae3d b277 ca3c
00000170: 0ebd 333d 0a77 a83a 6f7e d6bc b607 a0bd
00000180: 8adf 2d3d 428e 0e3d 2494 9bbb f439 7ebd
00000190: 660e 78bd 8f31 c4bc 1caa e13c a08a e33c
000001a0: 1145 5a3c 6d71 983c 3dc5 f83c d28d 713c
000001b0: 74b1 173d a08f b8bc 9f95 c73c 74fe 6dbd
000001c0: 8288 753d c155 843d c9c3 533d 13b1 943d
000001d0: e03e c73d d198 54bd 887e 7cbd c1d5 88b9
000001e0: 1b3f b33b 61fa 7e3c 1136 abbc 07c3 8e3d
000001f0: 4c63 48bc 2ce9 abbd 1345 e4b9 cd51 3e3d
00000200: 42d6 1b3d 5639 ddbc 3089 673c 59fb 623d
00000210: c7d8 2bbd 058e 753a 66a2 81bd d939 d8bc
00000220: a685 65bb 2118 413d d1ad 223d 204c 663d
00000230: ab88 b23d 64df 50bd aedd 6e3d 2a0b c53d
00000240: a52a 9bbc 4167 043d 2e61 9e3d 4fe2 753d
00000250: c17c 1abd e24c 0c3d d083 61bd a754 d73c
00000260: 4894 61bd c7d2 273d db9e 543d e09e 7b3c
00000270: d121 7ebd 46c0 da3c 0eca 22bc 9fb9 36bd
00000280: 2a90 ff3c 1c66 de3d b2a6 7c3c bf2b 123d
00000290: 96d3 93bd c5e8 a8bd 2a9b 423c 4e57 e73d
000002a0: 0527 503c 06e1 ac3c 5c35 9ebd 6c23 bdbd
000002b0: 154e 1fbd fa0f 82bb 780e d3bc 4572 bf3d
000002c0: df73 c93d b7e2 883d e15b 9abc 8605 5ebb
000002d0: e40f 763d 813c 0fbd a904 6dbd d51c a53d
000002e0: 75b7 92bd ef4e 86bd 4db6 6c3d 9488 39bc
000002f0: 96c4 413d fd7d 88bc 35bb 54bc 0cf9 e73d
00000300: f5a0 003c f2a4 e63d 8ac8 3d3d 291f 403d
00000310: 6a95 a53c a7a2 39bc f58c 84bd 9aab d3bb
00000320: d7ff 69bd 6b91 80bc a3dd d6bc f31d 7e3d
00000330: b42a 693d aa41 853d c2ba c7bd e890 bbbc
00000340: 036a ac3d 3581 133c 7a8a 45bd 746b 3f3d
00000350: 3985 fcbc 1009 903d 3f3e 8cbd b0ab 513d
00000360: fc63 aabd 56e6 98bd b05e e3bc 9fcc 483d
00000370: da08 abbd 4248 c0bb 63fb 91bd a22e 013d
00000380: 8802 93bc 2f53 d0bc dde6 a63a 4dda 1a3d
00000390: f67c 163d 0800 e2bc 174d 14be 21a6 80bd
000003a0: a56d 833b 7ba4 983c ab8e 0b3e 16b6 60bd
000003b0: 745f 7abd 99dc 11bd 6b47 1ebd 21a1 04bc
000003c0: bd05 053d cb01 df3d 6610 a53c d9b7 64bc
000003d0: 496d 6cbd 698c c1bd 36dc f73d c906 0cbc
000003e0: d5a0 ebbc 46c6 65bd 9d18 41bd 30d1 963d
000003f0: 414d 923d 94f0 28bc ee10 ef3c 74a4 17bb

enc_layers.0.poly.conv_1.bias f4 [8]
0.048936415 -0.032834366 0.034887508 0.048292127 -0.0065980027 -0.006111203 0.0028350756 0.019728374
00000000: 8d71 483d 547d 06bd 34e6 0e3d f7cd 453d
00000010: 0f34 d8bb 7d40 c8bb adcc 393b 669d a13c

enc_layers.0.poly.conv_2.weight f4 [8, 64, 1, 2]
0.058616996 0.06665083 0.09316867 0.061855294 -0.026562795 -0.045750346 -0.0690064 0.008742204
-0.04380148 -0.009450266 -0.016759694 -0.039369337 -0.018767595 0.052103996 0.033564076 0.07990503
0.03739077 -0.056426387 -0.061615963 0.06700683 0.01238935 -0.0064543295 0.025726898 0.053542525
0.051778916 -0.06545884 0.056295168 0.0030779284 0.043833297 -0.055611305 -0.046285585 0.028945362
0.06392883 0.06680715 0.019726237 0.050674282 -0.03487508 0.03307327 0.047887553 0.15021992
-0.024654724 -0.051987536 0.099174306 -0.06055548 0.058371194 -0.06505025 -0.009913799 -0.06798627
0.013810039 0.061112408 -0.060490634 -0.16480453 -0.033044226 -0.041744173 0.024587426 0.010504184
-0.020385148 -0.037981164 -0.045252353 0.005817235 -0.07612978 0.08480502 0.004376627 0.037737556
-0.10183734 -0.051399928 -0.06254075 0.06801619 -0.057927996 0.026948875 0.063684754 -0.034851685
-0.060726777 0.056400225 -0.05319637 0.041074604 -0.04211667 -0.02672037 0.048939213 -0.06505654
-0.04878764 0.004484542 0.04601423 -0.072623156 0.048128843 0.08296718 -0.06480512 -0.088183984
0.037508197 -0.054516416 -0.04378683 0.0886592 -0.10198938 0.0548788 -0.06371149 0.09588703
0.07093142 0.035139065 -0.0066194697 0.08844837 -0.059035975 -0.06964355 -0.19466414 -0.14703634
0.027287846 0.0027875772 -0.027270496 0.022876028 -0.06240855 -0.06355318 0.0087365415 0.05883702
-0.007698054 0.013423037 0.069344155 -0.020373143 0.010235188 -0.040540326 0.07690286 0.023031645
0.06578405 -0.0030556782 -0.0459712 0.0015425947 -0.047866274 -0.02183023 0.054683223 -0.07889791
0.015554937 -0.113032386 -0.059360895 0.06026693 -0.01680142 0.07447027 0.036004305 -0.049679343
0.06341944 0.08334746 0.052785352 0.030313367 0.05035512 -0.017347181 -0.062113248 -0.021197615
0.028532682 0.051912308 -0.027825719 0.031369515 -0.07057326 0.014482159 -0.03564456 0.039368164
0.033258364 -0.030868715 -0.08524015 0.01991964 -0.07472309 0.098999664 -0.014936344 -0.06955606
-0.05816379 0.005694795 -0.053373866 -0.010834442 -0.010571689 -0.002395332 -0.12347858 -0.059766535
0.037580933 0.09332885 0.05648993 -0.05432445 0.012471314 -0.011325326 0.023906523 -0.02502631
0.08779372 -0.06280207 -0.10183337 -0.048817024 -0.006669962 0.053262018 -0.042927083 0.019721353
-0.035715885 -0.012500329 -0.11083053 0.05053857 -0.01981527 0.063192815 0.123190016 -0.048185874
0.089262776 0.07040589 -0.036647346 -0.082882956 0.008558791 0.070258394 0.015873937 0.0422639
0.07507573 -0.06799626 -0.0734419 0.061998613 -0.036343962 -0.03475693 -0.0697444 -6.224614e-05
0.038479336 -0.06805393 -0.063330434 -0.034266252 -0.04022776 0.012459678 -0.062724896 -0.042530943
-0.02117127 0.03471676 0.036084995 -0.07939778 -0.00028252485 0.021692518 -0.08562596 0.0030434364
0.0076208133 -0.056077424 0.06276594 -0.005719876 -0.07596931 -0.091977276 -0.015258681 -0.01444089
-0.061125237 -0.06056792 0.041576322 -0.07469595 -0.014413994 -0.008523638 -0.06575686 -0.057567295
-0.07260426 0.06665979 -0.064458124 -0.008347159 0.0045912573 -0.055265084 0.009755744 -0.027270088
0.016926507 0.05838013 -0.06069017 0.02773801 -0.021573287 0.09601667 -0.070669085 -0.023713412
00000000: 6018 703d 3b80 883d 37cf be3d fa5b 7d3d
00000010: 389a d9bc b764 3bbd 3a53 8dbd 763b 0f3c
00000020: 2e69 33bd 4ad5 1abc a04b 89bc be41 21bd
00000030: 80be 99bc 006b 553d 7c7a 093d 40a5 a33d
00000040: 1027 193d 5b1f 67bd 0561 7cbd e03a 893d
00000050: b3fc 4a3c d77e d3bb 37c1 d23c 684f 5b3d
00000060: 2116 543d 490f 86bd c395 663d 12b7 493b
00000070: 8b8a 333d aec8 63bd f495 3dbd d31e ed3c
00000080: 1eed 823d 30d2 883d eb98 a13c d68f 4f3d
00000090: 2cd9 0ebd d677 073d bd25 443d 40d3 193e
000000a0: b4f8 c9bc e2f0 54bd e61b cb3d 0609 78bd
000000b0: a216 6f3d 1139 85bd 7d6d 22bc 633c 8bbd
000000c0: 8043 623c 0151 7a3d 07c5 77bd 85c2 28be
000000d0: 6259 07bd f0fb 2abd 926b c93c be19 2c3c
000000e0: c1fe a6bc 2392 1bbd 885a 39bd 819e be3b
000000f0: eee9 9bbd 41ae ad3d cf69 8f3b b292 1a3d
00000100: 1890 d0bd bb88 52bd 5d15 80bd 124c 8b3d
00000110: e845 6dbd e3c3 dc3c 276d 823d a4c0 0ebd
00000120: a4bc 78bd ec03 673d 70e4 59bd d83d 283d
00000130: 8882 2cbd ade4 dabc 7c74 483d 5d3c 85bd
00000140: 8cd5 47bd 11f3 923b 6b79 3c3d 73bb 94bd
00000150: c022 453d b2ea a93d 8cb8 84bd ce99 b4bd
00000160: 32a2 193d 9b4c 5fbd d259 33bd f492 b53d
00000170: cfdf d0bd 98c8 603d 2b7b 82bd 6b60 c43d
00000180: 7e44 913d fbed 0f3d 23e8 d8bb 6b24 b53d
00000190: b5cf 71bd 47a1 8ebd 0956 47be b290 16be
000001a0: c38a df3c c9af 363b 6066 dfbc 8266 bb3c
000001b0: 1ca0 7fbd 2b28 82bd b623 0f3c 16ff 703d
000001c0: f53f fcbb 4cec 5b3c 4f04 8e3d 94e5 a6bc
000001d0: 7db1 273c 9d0d 26bd 3f7f 9d3d dcac bc3c
000001e0: cab9 863d c641 48bb 4c4c 3cbd e430 ca3a
000001f0: 6d0f 44bd 4fd5 b2bc 84fb 5f3d 3a95 a1bd
00000200: 22da 7e3c 867d e7bd 6924 73bd 75da 763d
00000210: 22a3 89bc de83 983d 4079 133d 917c 4bbd
00000220: 0de2 813d 13b2 aa3d 7435 583d bd53 f83c
00000230: 2c41 4e3d ad1b 8ebc 766a 7ebd 9fa6 adbc
00000240: 5fbd e93c 00a2 543d c3f2 e3bc 527d 003d
00000250: b788 90bd 9446 6d3c 0800 12bd 8340 213d
00000260: ec39 083d 63e0 fcbc 6392 aebd 832e a33c
00000270: 6b08 99bd 56c0 ca3d 91b7 74bc 6873 8ebd
00000280: 273d 6ebd 679b ba3b 8e9e 5abd f282 31bc
00000290: e134 2dbc 01fb 1cbb 56e2 fcbd c1cd 74bd
000002a0: 77ee 193d 3223 bf3d fc61 673d 5183 5ebd
000002b0: 7b54 4c3c dc8d 39bc 9dd7 c33c fa03 cdbc
000002c0: 32cd b33d 5f9e 80bd 048e d0bd 5cf4 47bd
000002d0: b28f dabb 4629 5a3d 4fd4 2fbd ad8e a13c
000002e0: d24a 12bd 2ece 4cbc 1efb e2bd 8801 4f3d
000002f0: a253 a2bc 3c6b 813d 0c4b fc3d 8d5e 45bd
00000300: 67cf b63d f730 903d 871b 16bd 8abe a9bd
00000310: 2c3a 0c3c a2e3 8f3d 0f0a 823c e91c 2d3d
00000320: 4ec1 993d a041 8bbd b568 96bd 42f2 7d3d
00000330: 68dd 14bd 485d 0ebd 27d6 8ebd 248a 82b8
00000340: 829c 1d3d dc5f 8bbd 63b3 81bd c55a 0cbd
00000350: ddc5 24bd ad23 4c3c e975 80bd ed34 2ebd
00000360: 5f6f adbc 2933 0e3d dccd 133d 4e9b a2bd
00000370: d81f 94b9 82b4 b13c aa5c afbd 6474 473b
00000380: 04b8 f93b 71b1 65bd 6e8b 803d cc6d bbbb
00000390: cc95 9bbd 955e bcbd 8cff 79bc 7c99 6cbc
000003a0: 755e 7abd 1116 78bd ef4b 2a3d 31fa 98bd
000003b0: ac28 6cbc bba6 0bbc 88ab 86bd afcb 6bbd
000003c0: 8bb1 94bd ee84 883d 9f02 84bd 86c2 08bc
000003d0: 4272 963b a45d 62bd 8ed6 1f3c 8565 dfbc
000003e0: 75a9 8a3c 0120 6f3d 4196 78bd d33a e33c
000003f0: 76ba b0bc 63a4 c43d f4ba 90bd a142 c2bc

enc_layers.0.poly.conv_2.bias f4 [8]
0.069525965 -0.006238476 0.040411994 0.024868384 -0.03126138 -0.026647106 0.08556145 0.016973086
00000000: a163 8e3d 216c ccbb 0c87 253d c8b8 cb3c
00000010: ef0b 00bd 084b dabc d73a af3d 240b 8b3c

enc_layers.0.poly.conv_3.weight f4 [8, 64, 1, 2]
0.074030206 0.027936678 -0.10276589 -0.010883072 0.041644014 0.07514367 0.09543511 0.017346606
-0.021998221 -0.04802307 0.04543296 -0.030444156 -0.05558916 0.02749912 -0.05155041 0.029642988
-0.09422612 0.010713963 -0.09198976 -0.08018566 0.07139445 0.05584332 0.027753627 -0.0121012535
0.03721097 0.03278259 0.11413047 0.08706273 0.03625927 -0.012744036 0.08306509 -0.023447713
0.061260004 -0.05110621 0.061046004 0.0038853663 0.050400924 0.06969089 0.015122509 0.014057695
0.03083036 0.07084773 -0.0015340317 -0.063271776 0.041733924 -0.029927226 -0.07644344 0.0131699145
-0.09604656 -0.06497138 -0.0011173746 -0.13322113 0.010655123 -0.11862525 0.0069502434 0.026824266
0.04529634 -0.053191964 0.056121804 -0.102352805 -0.03788475 0.028243313 0.11365277 0.00697325
-0.08286064 0.043731112 0.050257653 -0.02803179 -0.06625875 0.04653274 0.030529018 0.019619655
0.017264955 -0.037527833 0.018396793 0.024435274 0.07821989 0.0063476576 0.05654998 0.05901549
-0.04275867 0.032228716 -0.006075333 -0.03039522 0.043100983 0.07669067 -0.06721326 0.029548116
0.008521746 0.06864656 0.011481404 0.08104172 -0.093889736 -0.086413674 0.022229794 0.02087907
0.05455956 -0.014539396 -0.00047751263 -0.04185513 -0.08108027 -0.04476105 0.057404406 0.045785096
0.007301934 0.09006422 0.06748908 0.08922239 -0.036604337 -0.010773961 -0.069447055 0.052758474
-0.0075838463 -0.0074529992 -0.090556964 0.025283538 -0.028758483 -0.012049181 -0.014035183 -0.03036995
-0.07093014 0.006602234 -0.040071543 -0.096106716 -0.00025918684 -0.007485382 0.03519781 -0.0317117
0.014855042 0.056835826 0.0781105 0.0085651055 0.029359598 0.0392085 0.09182348 -0.004184054
5.2905685e-05 0.060136113 -0.014466005 0.056328222 -0.0045343684 0.089569084 0.037629586 -0.046592876
-0.035473175 -0.012850923 -0.031415656 0.012073472 -0.08206351 -0.08361871 -0.018650109 -0.03565332
-0.07040129 -0.012284379 0.013971698 0.003762097 0.09881742 0.063848 0.0318402 0.034907956
0.025515417 -0.108460754 0.010797417 0.009727939 0.016313378 0.06068265 -0.115055345 -0.08718557
0.11157764 -0.013946359 0.042448167 0.017998736 -0.0579227 -0.0046644746 -0.058337584 -0.09589667
0.0804882 -0.075190306 -0.010602917 0.04616262 -0.046190146 -0.055066653 0.031078195 -0.06346912
-0.09209102 0.03415413 -0.008599086 0.03924618 0.0736793 -0.042546254 0.0055967937 0.0019746216
0.03928097 -0.018374942 0.075139076 -0.07094167 0.053352162 0.018619219 -0.09397682 -0.017912826
0.08959246 0.09757677 -0.051987965 -0.03254704 0.06635823 -0.08862254 0.0072776107 0.055047933
-0.007893118 0.07115831 -0.08473894 -0.09268795 -0.051159058 -0.0430206 -0.06403311 -0.033523668
0.0008826193 -0.04156486 -0.006168511 0.038744546 -0.012499 -0.078387246 0.038908992 -0.03728022
0.03327291 -0.030231707 0.03418732 0.041098733 -0.0018621357 0.05456505 -0.0149232345 0.007827009
0.022291498 -0.06308886 -0.051149935 0.004405936 -0.037287816 -0.037630808 0.034257904 0.08617817
-0.08612861 -0.0018886559 0.051259473 -0.070085235 0.09520544 -0.02426735 -0.075228624 -0.055986207
0.02267189 -0.06960398 0.0917122 -0.077237405 0.044487346 0.06246898 -0.09931446 -0.033810154
00000000: 269d 973d 76db e43c ec76 d2bd ea4e 32bc
00000010: ea92 2a3d ede4 993d 7c73 c33d 781a 8e3c
00000020: 9d35 b4bc d7b3 44bd e917 3a3d 0666 f9bc
00000030: 76b1 63bd d645 e13c 8626 53bd dad5 f23c
00000040: a0f9 c0bd 9e89 2f3c 2165 bcbd 6138 a4bd
00000050: 4137 923d f7bb 643d 935b e33c 5644 46bc
00000060: 886a 183d 0947 063d 3cbd e93d f24d b23d
00000070: 9a84 143d 5ccc 50bc 081e aa3d 6b15 c0bc
00000080: c5eb 7a3d bf54 51bd 600b 7a3d a1a1 7e3b
00000090: 3371 4e3d 19ba 8e3d 66c4 773c 3f52 663c
000000a0: f38f fc3c 9d18 913d 9011 c9ba a294 81bd
000000b0: 31f1 2a3d f129 f5bc 618e 9cbd a0c6 573c
000000c0: 0fb4 c4bd b70f 85bd df74 92ba 1f6b 08be
000000d0: d392 2e3c ccf1 f2bd debe e33b 90be db3c
000000e0: a888 393d d1df 59bd fadf 653d 599e d1bd
000000f0: 0a2d 1bbd 855e e73c c9c2 e83d dc7f e43b
00000100: d7b2 a9bd 651f 333d f8da 4d3d eda2 e5bc
00000110: abb2 87bd 1d99 3e3d fe17 fa3c 66b9 a03c
00000120: 3c6f 8d3c c9b6 19bd dfb4 963c 7c2c c83c
00000130: c031 a03d 0300 d03b f4a0 673d 3aba 713d
00000140: b723 2fbd 4202 043d 9613 c7bb 65ff f8bc
00000150: a88a 303d ff0f 9d3d 1ba7 89bd e40e f23c
00000160: cb9e 0b3c 9196 8c3d 801c 3c3c 34f9 a53d
00000170: 4349 c0bd a7f9 b0bd 421b b63c 950a ab3c
00000180: d879 5f3d a636 6ebc a95a fab9 4970 2bbd
00000190: 6a0d a6bd 5d57 37bd e220 6b3d 2789 3b3d
000001a0: 1045 ef3b 9773 b83d b737 8a3d 3aba b63d
000001b0: 6eee 15bd 4585 30bc 423a 8ebd 4519 583d
000001c0: ea81 f8bb 4a38 f4bb ee75 b9bd 6c1f cf3c
000001d0: e996 ebbc ee69 45bc d3f3 65bc 67ca f8bc
000001e0: d243 91bd 8e57 d83b 0f22 24bd 99d3 c4bd
000001f0: 78e3 87b9 ef47 f5bb 942b 103d 21e4 01bd
00000200: 9062 733c afcc 683d 66f8 9f3d a854 0c3c
00000210: 8a83 f03c 1899 203d f30d bc3d 641a 89bb
00000220: 0ce7 5d38 4951 763d d302 6dbc 6cb8 663d
00000230: 0a95 94bb ff6f b73d 7b21 1a3d 2cd8 3ebd
00000240: 524c 11bd ae8c 52bc b4ad 00bd d0cf 453c
00000250: ea10 a8bd 4940 abbd 1dc8 98bc 3709 12bd
00000260: 8d2e 90bd 6c44 49bc 8ce9 643c 848d 763b
00000270: ca60 ca3d bdc2 823d df6a 023d a5fb 0e3d
00000280: b505 d13c ac20 debd a6e7 303c ef61 1f3c
00000290: a2a3 853c 5f8e 783d 23a2 ebbd 598e b2bd
000002a0: d182 e43d 457f 64bc 21de 2d3d 1672 933c
000002b0: 5a40 6dbd 73d8 98bb 64f3 6ebd 7965 c4bd
000002c0: ffd6 a43d 60fd 99bd dbb7 2dbc 0415 3d3d
000002d0: e131 3dbd 928d 61bd b397 fe3c 19fc 81bd
000002e0: 379a bcbd 33e5 0b3d 2ee3 0cbc 9ac0 203d
000002f0: 2ce5 963d fb44 2ebd 4f65 b73b a768 013b
00000300: 15e5 203d 0c87 96bc 84e2 993d de49 91bd
00000310: cc87 5a3d 5587 983c eb76 c0bd ebbd 92bc
00000320: 407c b73d 54d6 c73d 55f1 54bd 0c50 05bd
00000330: d3e6 873d bc7f b5bd 0679 ee3b f179 613d
00000340: 2352 01bc 73bb 913d 9c8b adbd 2ed3 bdbd
00000350: 298c 51bd 5e36 30bd cb23 83bd 1d50 09bd
00000360: 945f 673a ea3f 2abd 3921 cabb 9ab2 1e3d
00000370: 9bc8 4cbc 7e89 a0bd 095f 1f3d 25b3 18bd
00000380: 2d49 083d 7ca8 f7bc 0108 0c3d 2557 283d
00000390: e812 f4ba 9a7f 5f3d 9580 74bc db3c 003c
000003a0: a99c b63c bb34 81bd 9882 51bd ac5f 903b
000003b0: 1cbb 18bd c322 1abd 0452 0c3d 2e7e b03d
000003c0: 3264 b0bd c78c f7ba 74f5 513d d988 8fbd
000003d0: 12fb c23d 52cc c6bc 7711 9abd cb51 65bd
000003e0: 66ba b93c 888c 8ebd 9bd3 bb3d a52e 9ebd
000003f0: 5d38 363d 79df 7f3d 6165 cbbd 847c 0abd

enc_layers.0.poly.conv_3.bias f4 [8]
0.09736727 0.0264125 0.07036652 -0.063116945 -0.046740085 -0.02746081 0.038632542 0.07742935
00000000: 7e68 c73d 075f d83c 521c 903d 7543 81bd
00000010: 8872 3fbd 7ef5 e0bc 283d 1e3d 4793 9e3d

enc_layers.0.poly.conv_4.weight f4 [8, 8, 1, 1]
0.16498616 0.014235389 0.35091063 0.31293184 0.30713376 -0.14207275 -0.06480529 0.2176525
-0.21980976 -0.11122343 -0.20186712 -0.10675478 0.21225569 -0.2816785 0.016400877 -0.24272706
0.17808501 0.29911143 0.119823225 -0.016940711 0.110460654 -0.013859235 0.10479384 -0.10013253
0.17142586 0.04980327 0.25465593 -0.2334014 -0.1653809 -0.07716305 0.2629108 -0.05802892
0.30264455 -0.026357654 0.10353087 -0.28527 0.24932845 0.01693665 -0.23576792 -0.24988373
-0.025633775 -0.21173926 0.038655493 -0.25935018 0.11501956 0.35459992 0.20835513 -0.011799632
-0.040218648 0.038786773 -0.10874429 -0.3490142 -0.102918305 -0.0524531 -0.10158848 -0.31267902
0.34792048 -0.2105632 -0.08190349 0.26881713 -0.060345687 -0.21847253 0.2933246 -0.30700475
00000000: 22f2 283e 8d3b 693c 8faa b33e 9a38 a03e
00000010: a340 9d3e 857b 11be a3b8 84bd 4ce0 5e3e
00000020: cf15 61be 1cc9 e3bd 41b6 4ebe 40a2 dabd
00000030: 8e59 593e 2a38 90be 225b 863c 718d 78be
00000040: eb5b 363e 2225 993e e165 f53d 3fc7 8abc
00000050: 3239 e23d d811 63bc 279e d63d 4912 cdbd
00000060: 438a 2f3e 83fe 4b3d 4362 823e c700 6fbe
00000070: 9c59 29be a907 9ebd 3f9c 863e bcaf 6dbd
00000080: 3af4 9a3e 02ec d7bc fe07 d43d e90e 92be
00000090: f54f 7f3e bbbe 8a3c 256d 71be 85e1 7fbe
000000a0: ecfd d1bc 2dd2 58be 3955 1e3d 8cc9 84be
000000b0: 608f eb3d 1f8e b53e 0c5b 553e 3e53 41bc
000000c0: 4fbc 24bd e1de 1e3d 54b5 debd fdb1 b2be
000000d0: d5c6 d2bd 10d9 56bd 9f0d d0bd 7717 a0be
000000e0: a222 b23e e19d 57be 04bd a7bd 66a2 893e
000000f0: 0a2d 77bd 43b7 5fbe a42e 963e ba2f 9dbe

enc_layers.0.poly.conv_4.bias f4 [8]
-0.18669242 0.24373358 0.08538261 0.015300791 0.096059635 0.26591185 0.21958022 0.061489135
00000000: 4c2c 3fbe 4c95 793e 14dd ae3d 2bb0 7a3c
00000010: eaba c43d 9925 883e a3d9 603e 08dc 7b3d

enc_layers.1.I_st f4 [1, 1, 1, 8]
-0.106831424 -0.16784912 -0.16619374 -0.14164233 -0.16745336 -0.13789026 0.050516006 0.24333839
00000000: 6fca dabd a4e0 2bbe b12e 2abe b00a 11be
00000010: e578 2bbe 1b33 0dbe dfe9 4e3d b32d 793e

enc_layers.1.E_st f4 [96, 1, 1, 8]
0.14313239 0.07931279 -0.088029824 -0.14412165 -0.22198884 -0.22631694 0.01866599 0.119118795
0.077553995 0.03718317 -0.03743989 -0.1531984 -0.15226558 -0.08938473 0.00969501 0.08281773
0.03420558 0.025310097 0.016787497 0.0019336174 -0.022605767 -0.046327136 -0.0159912 -0.025837528
0.082616985 0.03448483 -0.021747727 -0.09777249 -0.15366755 -0.08613611 -0.013712295 0.058478255
0.1103008 0.07782273 0.03214639 -0.01987087 -0.06381592 -0.064115025 -0.06712805 -0.08113351
0.11479065 0.103726834 0.088722 0.05467586 -0.11031397 -0.11647967 -0.08477201 -0.09519188
0.023178149 0.11231794 0.17186214 0.12635158 0.028938472 -0.06196406 -0.12361707 -0.14881112
-0.062043328 -0.053144235 -0.052200787 -0.037008543 0.04022105 0.057787463 0.0476846 0.057746183
0.039375164 0.03126997 0.037419904 0.05621333 0.015975706 -0.012774046 -0.035216738 -0.07412315
0.00071139156 0.03249186 0.0839824 0.12854512 0.052087266 -0.019036325 -0.08782285 -0.07726682
-0.0347537 -0.028549861 -0.067162 -0.062172804 0.039994575 0.083868854 0.053173408 0.010395194
0.071798846 0.0469193 0.005973079 -0.029874498 -0.061245155 -0.034073893 -0.022251476 -0.03249144
-0.026114078 -0.03714799 -0.036797676 -0.042341515 0.040137615 0.06456527 0.025619915 0.01992788
0.060328607 0.026498856 -0.030839715 -0.049238697 -0.046172384 -0.03766501 -0.0140366 -0.011201329
-0.019338606 -0.020370498 -0.035500217 -0.033713352 0.025385035 0.034362495 0.042953826 0.003821065
-0.056632273 -0.08684624 -0.07978376 -0.0062632933 0.036305595 0.055253115 0.11695487 0.0744589
0.024941657 -0.011403539 0.013085817 0.04280154 0.027201029 -0.007435738 -0.01052674 -0.034870915
-0.07254854 -0.064372 -0.079146765 -0.020374866 0.10483039 0.08441997 0.07008044 0.047240168
-0.059099954 -0.08710157 -0.07803071 0.018485276 0.026287256 0.07660078 0.08770207 0.06778039
0.014979979 0.016920106 -0.0007478824 -0.04475152 -0.0034477091 -0.013654022 0.0042231977 -0.0022129288
-0.06706939 -0.08763505 -0.10891886 -0.1428607 -0.13622458 0.018901687 0.10649997 0.15112856
-0.06603527 -0.07131406 -0.060101114 -0.038789555 0.017019335 0.09133713 0.077054136 0.03782213
0.055546023 0.077874936 0.0709632 0.04611174 -0.015518217 -0.11056978 -0.09566299 -0.0075414344
-0.04100246 0.0017141883 0.075563125 0.100375704 0.097863816 0.015592149 -0.096588194 -0.073196
-0.044258386 -0.037380777 -0.03606086 -0.012017584 -0.009180279 -0.0026711973 0.049496014 0.051857844
0.0005259752 -0.035494782 -0.04634554 -0.026971035 0.013775052 0.036314614 0.030370716 0.013838082
-0.031519935 -0.020394148 -0.006983859 0.028171267 0.05257409 0.023285989 0.017238656 -0.005444527
-0.115348004 -0.10495903 -0.095952205 -0.064753115 0.09272457 0.12109056 0.09921604 0.093183994
-0.022335978 -0.053479478 -0.024360862 0.0082049575 0.030896014 0.00330674 0.048507854 0.020102534
0.10951445 0.054940164 0.008232662 -0.029055223 -0.058332216 -0.057926018 -0.033805117 -0.020197341
-0.080852196 -0.06338124 -0.022797097 0.02800291 0.05996127 0.06187982 0.06331635 0.035607044
-0.023514692 -0.029109538 -0.034567714 -0.023803424 -0.0048261397 0.015305649 0.038593534 0.049294826
00000000: 4c91 123e be6e a23d fb48 b4bd a094 13be
00000010: 0b51 63be a1bf 67be 6be9 983c 8ef4 f33d
00000020: a1d4 9e3d 614d 183d 925a 19bd 0be0 1cbe
00000030: 82eb 1bbe 570f b7bd d2d7 1e3c 589c a93d
00000040: 261b 0c3d 1f57 cf3c ef85 893c 6f71 fd3a
00000050: bb2f b9bc 86c1 3dbd faff 82bc 39a9 d3bc
00000060: 1833 a93d f73f 0d3d 4a28 b2bc f13c c8bd
00000070: 075b 1dbe 2168 b0bd 89a9 60bc e586 6f3d
00000080: 63e5 e13d 8661 9f3d efab 033d 3cc8 a2bc
00000090: ecb1 82bd bd4e 83bd 6e7a 89bd 5329 a6bd
000000a0: 5c17 eb3d bc6e d43d e1b3 b53d cbf3 5f3d
000000b0: 4aec e1bd e58c eebd f39c adbd f6f3 c2bd
000000c0: 1ae0 bd3c f306 e63d a1fc 2f3e 4f62 013e
000000d0: 6010 ed3c 07ce 7dbd f22a fdbd f161 18be
000000e0: 2521 7ebd c5ad 59bd 7ed0 55bd 4596 17bd
000000f0: d4be 243d 8cb2 6c3d ed50 433d 4387 6c3d
00000100: da47 213d f114 003d 9d45 193d f33f 663d
00000110: 7cdf 823c 3b4a 51bc 6d3f 10bd e1cd 97bd
00000120: ae7c 3a3a 2f16 053d f7fe ab3d 55a1 033e
00000130: 7559 553d 11f2 9bbc 77dc b3bd 113e 9ebd
00000140: e559 0ebd 66e1 e9bc 3b8c 89bd e9a8 7ebd
00000150: 5ad1 233d 6fc3 ab3d 5ccc 593d 9b50 2a3c
00000160: 460b 933d 742e 403d d1b9 c33b 5dbb f4bc
00000170: 33dc 7abd 1191 0bbd ba48 b6bc bf15 05bd
00000180: 31ed d5bc 7e28 18bd 29b9 16bd 4c6e 2dbd
00000190: 5767 243d cc3a 843d dbe0 d13c cb3f a33c
000001a0: 211b 773d 2114 d93c 92a3 fcbc 84ae 49bd
000001b0: 411f 3dbd a046 1abd c4f9 65bc c785 37bc
000001c0: ff6b 9ebc 08e0 a6bc ad68 11bd 0317 0abd
000001d0: 47f4 cf3c b0bf 0c3d 5af0 2f3d d56a 7a3b
000001e0: 3ef7 67bd 71dc b1bd ab65 a3bd 503c cdbb
000001f0: 2db5 143d 1751 623d 0986 ef3d e87d 983d
00000200: 7252 cc3c e9d5 3abc e565 563c ab50 2f3d
00000210: b1d4 de3c 7ea7 f3bb 5978 2cbc ced4 0ebd
00000220: 5494 94bd 78d5 83bd b317 a2bd 31e9 a6bc
00000230: 51b1 d63d 61e4 ac3d 5586 8f3d e87e 413d
00000240: cb12 72bd 4f62 b2bd 91ce 9fbd 6f6e 973c
00000250: 5f58 d73c dfe0 9c3d 259d b33d 72d0 8a3d
00000260: 966e 753c 099c 8a3c 8a0d 44ba 5f4d 37bd
00000270: f6f2 61bb 1eb5 5fbc c062 8a3b c906 11bb
00000280: ad5b 89bd 017a b3bd da10 dfbd 134a 12be
00000290: 757e 0bbe b6d7 9a3c a81c da3d 72c1 1a3e
000002a0: 803d 87bd 1b0d 92bd 962c 76bd cce1 1ebd
000002b0: 226c 8b3c f60e bb3d 8fce 9d3d 61eb 1a3d
000002c0: 3a84 633d e57c 9f3d 2755 913d aadf 3c3d
000002d0: 1f40 7ebc 6972 e2bd f5ea c3bd 231e f7bb
000002e0: 32f2 27bd 9dae e03a d7c0 9a3d c791 cd3d
000002f0: d36c c83d 3776 7f3c 08d0 c5bd c9e7 95bd
00000300: 4848 35bd 961c 19bd 8db4 13bd 67e5 44bc
00000310: e268 16bc 410f 2fbb 55bc 4a3d e468 543d
00000320: 99e1 093a fa62 11bd d2d4 3dbd 5cf2 dcbc
00000330: c1b0 613c a2be 143d 02cc f83c 1fb9 623c
00000340: 0c1b 01bd a111 a7bc dbd8 e4bb 6ec7 e63c
00000350: ee57 573d 42c2 be3c 1538 8d3c 0168 b2bb
00000360: 933b ecbd c3f4 d6bd 9782 c4bd 489d 84bd
00000370: 61e6 bd3d 54fe f73d c731 cb3d 40d7 be3d
00000380: f1f9 b6bc 4c0d 5bbd 6e90 c7bc 166e 063c
00000390: a319 fd3c e4b5 583b 2cb0 463d 12ae a43c
000003a0: 1d49 e03d f008 613d 4ae2 063c 3805 eebc
000003b0: c3ed 6ebd d543 6dbd 3c77 0abd e574 a5bc
000003c0: d695 a5bd 06ce 81bd fac0 babc 5c66 e53c
000003d0: f399 753d b275 7d3d 01ac 813d b1d8 113d
000003e0: e2a1 c0bc 2077 eebc e096 0dbd 66ff c2bc
000003f0: 9824 9ebb 8bc4 7a3c 4114 1e3d 5fe9 493d
